{"format": "graph-model", "generatedBy": "2.16.2", "convertedBy": "TensorFlow.js Converter v4.20.0", "signature": {"outputs": {"Identity:0": {"name": "Identity:0"}}}, "modelTopology": {"node": [{"name": "ConstantFolding/PartitionedCall/model_146/tf.math.divide_5/truediv_recip", "op": "Const", "attr": {"value": {"tensor": {"dtype": "DT_FLOAT", "tensorShape": {"dim": [{"size": "1"}, {"size": "1"}, {"size": "1"}]}}}, "dtype": {"type": "DT_FLOAT"}}}, {"name": "107602", "op": "Const", "attr": {"dtype": {"type": "DT_FLOAT"}, "value": {"tensor": {"dtype": "DT_FLOAT", "tensorShape": {"dim": [{"size": "1"}, {"size": "2"}, {"size": "8400"}]}}}}}, {"name": "107592", "op": "Const", "attr": {"value": {"tensor": {"dtype": "DT_INT64", "tensorShape": {"dim": [{"size": "3"}]}}}, "dtype": {"type": "DT_INT64"}}}, {"name": "107594", "op": "Const", "attr": {"dtype": {"type": "DT_INT64"}, "value": {"tensor": {"dtype": "DT_INT64", "tensorShape": {"dim": [{"size": "3"}]}}}}}, {"name": "PartitionedCall/model_146/tf.strided_slice_129/ones_like", "op": "Const", "attr": {"value": {"tensor": {"dtype": "DT_INT64", "tensorShape": {"dim": [{"size": "3"}]}}}, "dtype": {"type": "DT_INT64"}}}, {"name": "107604", "op": "Const", "attr": {"value": {"tensor": {"dtype": "DT_FLOAT", "tensorShape": {"dim": [{"size": "1"}, {"size": "2"}, {"size": "8400"}]}}}, "dtype": {"type": "DT_FLOAT"}}}, {"name": "107564", "op": "Const", "attr": {"value": {"tensor": {"dtype": "DT_INT64", "tensorShape": {"dim": [{"size": "3"}]}}}, "dtype": {"type": "DT_INT64"}}}, {"name": "107566", "op": "Const", "attr": {"value": {"tensor": {"dtype": "DT_INT64", "tensorShape": {"dim": [{"size": "3"}]}}}, "dtype": {"type": "DT_INT64"}}}, {"name": "PartitionedCall/model_146/tf.strided_slice_124/StridedSlice/strides", "op": "Const", "attr": {"dtype": {"type": "DT_INT64"}, "value": {"tensor": {"dtype": "DT_INT64", "tensorShape": {"dim": [{"size": "3"}]}}}}}, {"name": "PartitionedCall/model_146/tf.reshape_117/Reshape/shape", "op": "Const", "attr": {"value": {"tensor": {"dtype": "DT_INT32", "tensorShape": {"dim": [{"size": "4"}]}}}, "dtype": {"type": "DT_INT32"}}}, {"name": "PartitionedCall/model_146/tf.compat.v1.transpose_239/transpose/perm", "op": "Const", "attr": {"dtype": {"type": "DT_INT32"}, "value": {"tensor": {"dtype": "DT_INT32", "tensorShape": {"dim": [{"size": "4"}]}}}}}, {"name": "PartitionedCall/model_146/tf.compat.v1.transpose_240/transpose/perm", "op": "Const", "attr": {"dtype": {"type": "DT_INT32"}, "value": {"tensor": {"dtype": "DT_INT32", "tensorShape": {"dim": [{"size": "4"}]}}}}}, {"name": "107586", "op": "Const", "attr": {"value": {"tensor": {"dtype": "DT_FLOAT", "tensorShape": {"dim": [{"size": "1"}, {"size": "1"}, {"size": "16"}, {"size": "1"}]}}}, "dtype": {"type": "DT_FLOAT"}}}, {"name": "PartitionedCall/model_146/tf.compat.v1.transpose_245/transpose/perm", "op": "Const", "attr": {"value": {"tensor": {"dtype": "DT_INT32", "tensorShape": {"dim": [{"size": "4"}]}}}, "dtype": {"type": "DT_INT32"}}}, {"name": "PartitionedCall/model_146/tf.reshape_120/Reshape/shape", "op": "Const", "attr": {"value": {"tensor": {"dtype": "DT_INT32", "tensorShape": {"dim": [{"size": "3"}]}}}, "dtype": {"type": "DT_INT32"}}}, {"name": "107596", "op": "Const", "attr": {"dtype": {"type": "DT_INT64"}, "value": {"tensor": {"dtype": "DT_INT64", "tensorShape": {"dim": [{"size": "3"}]}}}}}, {"name": "107598", "op": "Const", "attr": {"value": {"tensor": {"dtype": "DT_INT64", "tensorShape": {"dim": [{"size": "3"}]}}}, "dtype": {"type": "DT_INT64"}}}, {"name": "PartitionedCall/model_146/tf.strided_slice_128/ones_like", "op": "Const", "attr": {"dtype": {"type": "DT_INT64"}, "value": {"tensor": {"dtype": "DT_INT64", "tensorShape": {"dim": [{"size": "3"}]}}}}}, {"name": "PartitionedCall/model_146/tf.concat_148/concat/axis", "op": "Const", "attr": {"value": {"tensor": {"dtype": "DT_INT32", "tensorShape": {}}}, "dtype": {"type": "DT_INT32"}}}, {"name": "PartitionedCall/model_146/tf.math.multiply_1732/Mul/y", "op": "Const", "attr": {"value": {"tensor": {"dtype": "DT_FLOAT", "tensorShape": {"dim": [{"size": "1"}, {"size": "1"}, {"size": "8400"}]}}}, "dtype": {"type": "DT_FLOAT"}}}, {"name": "107484", "op": "Const", "attr": {"dtype": {"type": "DT_FLOAT"}, "value": {"tensor": {"dtype": "DT_FLOAT", "tensorShape": {"dim": [{"size": "3"}, {"size": "3"}, {"size": "64"}, {"size": "64"}]}}}}}, {"name": "107496", "op": "Const", "attr": {"dtype": {"type": "DT_FLOAT"}, "value": {"tensor": {"dtype": "DT_FLOAT", "tensorShape": {"dim": [{"size": "64"}]}}}}}, {"name": "107508", "op": "Const", "attr": {"dtype": {"type": "DT_FLOAT"}, "value": {"tensor": {"dtype": "DT_FLOAT", "tensorShape": {"dim": [{"size": "3"}, {"size": "3"}, {"size": "64"}, {"size": "64"}]}}}}}, {"name": "107520", "op": "Const", "attr": {"value": {"tensor": {"dtype": "DT_FLOAT", "tensorShape": {"dim": [{"size": "64"}]}}}, "dtype": {"type": "DT_FLOAT"}}}, {"name": "107532", "op": "Const", "attr": {"dtype": {"type": "DT_FLOAT"}, "value": {"tensor": {"dtype": "DT_FLOAT", "tensorShape": {"dim": [{"size": "1"}, {"size": "1"}, {"size": "64"}, {"size": "64"}]}}}}}, {"name": "107542", "op": "Const", "attr": {"dtype": {"type": "DT_FLOAT"}, "value": {"tensor": {"dtype": "DT_FLOAT", "tensorShape": {"dim": [{"size": "64"}]}}}}}, {"name": "107482", "op": "Const", "attr": {"dtype": {"type": "DT_FLOAT"}, "value": {"tensor": {"dtype": "DT_FLOAT", "tensorShape": {"dim": [{"size": "3"}, {"size": "3"}, {"size": "64"}, {"size": "64"}]}}}}}, {"name": "107494", "op": "Const", "attr": {"value": {"tensor": {"dtype": "DT_FLOAT", "tensorShape": {"dim": [{"size": "64"}]}}}, "dtype": {"type": "DT_FLOAT"}}}, {"name": "107506", "op": "Const", "attr": {"value": {"tensor": {"dtype": "DT_FLOAT", "tensorShape": {"dim": [{"size": "3"}, {"size": "3"}, {"size": "64"}, {"size": "64"}]}}}, "dtype": {"type": "DT_FLOAT"}}}, {"name": "107518", "op": "Const", "attr": {"dtype": {"type": "DT_FLOAT"}, "value": {"tensor": {"dtype": "DT_FLOAT", "tensorShape": {"dim": [{"size": "64"}]}}}}}, {"name": "107530", "op": "Const", "attr": {"value": {"tensor": {"dtype": "DT_FLOAT", "tensorShape": {"dim": [{"size": "1"}, {"size": "1"}, {"size": "64"}, {"size": "1"}]}}}, "dtype": {"type": "DT_FLOAT"}}}, {"name": "107544", "op": "Const", "attr": {"value": {"tensor": {"dtype": "DT_FLOAT", "tensorShape": {"dim": [{"size": "1"}]}}}, "dtype": {"type": "DT_FLOAT"}}}, {"name": "PartitionedCall/model_146/tf.concat_136/concat/axis", "op": "Const", "attr": {"value": {"tensor": {"dtype": "DT_INT32", "tensorShape": {}}}, "dtype": {"type": "DT_INT32"}}}, {"name": "PartitionedCall/model_146/tf.compat.v1.transpose_208/transpose/perm", "op": "Const", "attr": {"value": {"tensor": {"dtype": "DT_INT32", "tensorShape": {"dim": [{"size": "4"}]}}}, "dtype": {"type": "DT_INT32"}}}, {"name": "PartitionedCall/model_146/tf.reshape_99/Reshape/shape", "op": "Const", "attr": {"value": {"tensor": {"dtype": "DT_INT32", "tensorShape": {"dim": [{"size": "3"}]}}}, "dtype": {"type": "DT_INT32"}}}, {"name": "107480", "op": "Const", "attr": {"value": {"tensor": {"dtype": "DT_FLOAT", "tensorShape": {"dim": [{"size": "3"}, {"size": "3"}, {"size": "128"}, {"size": "64"}]}}}, "dtype": {"type": "DT_FLOAT"}}}, {"name": "107492", "op": "Const", "attr": {"value": {"tensor": {"dtype": "DT_FLOAT", "tensorShape": {"dim": [{"size": "64"}]}}}, "dtype": {"type": "DT_FLOAT"}}}, {"name": "107504", "op": "Const", "attr": {"value": {"tensor": {"dtype": "DT_FLOAT", "tensorShape": {"dim": [{"size": "3"}, {"size": "3"}, {"size": "64"}, {"size": "64"}]}}}, "dtype": {"type": "DT_FLOAT"}}}, {"name": "107516", "op": "Const", "attr": {"value": {"tensor": {"dtype": "DT_FLOAT", "tensorShape": {"dim": [{"size": "64"}]}}}, "dtype": {"type": "DT_FLOAT"}}}, {"name": "107528", "op": "Const", "attr": {"value": {"tensor": {"dtype": "DT_FLOAT", "tensorShape": {"dim": [{"size": "1"}, {"size": "1"}, {"size": "64"}, {"size": "64"}]}}}, "dtype": {"type": "DT_FLOAT"}}}, {"name": "107538", "op": "Const", "attr": {"dtype": {"type": "DT_FLOAT"}, "value": {"tensor": {"dtype": "DT_FLOAT", "tensorShape": {"dim": [{"size": "64"}]}}}}}, {"name": "107478", "op": "Const", "attr": {"value": {"tensor": {"dtype": "DT_FLOAT", "tensorShape": {"dim": [{"size": "3"}, {"size": "3"}, {"size": "128"}, {"size": "64"}]}}}, "dtype": {"type": "DT_FLOAT"}}}, {"name": "107490", "op": "Const", "attr": {"value": {"tensor": {"dtype": "DT_FLOAT", "tensorShape": {"dim": [{"size": "64"}]}}}, "dtype": {"type": "DT_FLOAT"}}}, {"name": "107502", "op": "Const", "attr": {"value": {"tensor": {"dtype": "DT_FLOAT", "tensorShape": {"dim": [{"size": "3"}, {"size": "3"}, {"size": "64"}, {"size": "64"}]}}}, "dtype": {"type": "DT_FLOAT"}}}, {"name": "107514", "op": "Const", "attr": {"dtype": {"type": "DT_FLOAT"}, "value": {"tensor": {"dtype": "DT_FLOAT", "tensorShape": {"dim": [{"size": "64"}]}}}}}, {"name": "107526", "op": "Const", "attr": {"value": {"tensor": {"dtype": "DT_FLOAT", "tensorShape": {"dim": [{"size": "1"}, {"size": "1"}, {"size": "64"}, {"size": "1"}]}}}, "dtype": {"type": "DT_FLOAT"}}}, {"name": "107540", "op": "Const", "attr": {"value": {"tensor": {"dtype": "DT_FLOAT", "tensorShape": {"dim": [{"size": "1"}]}}}, "dtype": {"type": "DT_FLOAT"}}}, {"name": "PartitionedCall/model_146/tf.concat_139/concat/axis", "op": "Const", "attr": {"dtype": {"type": "DT_INT32"}, "value": {"tensor": {"dtype": "DT_INT32", "tensorShape": {}}}}}, {"name": "PartitionedCall/model_146/tf.compat.v1.transpose_218/transpose/perm", "op": "Const", "attr": {"dtype": {"type": "DT_INT32"}, "value": {"tensor": {"dtype": "DT_INT32", "tensorShape": {"dim": [{"size": "4"}]}}}}}, {"name": "PartitionedCall/model_146/tf.reshape_105/Reshape/shape", "op": "Const", "attr": {"dtype": {"type": "DT_INT32"}, "value": {"tensor": {"dtype": "DT_INT32", "tensorShape": {"dim": [{"size": "3"}]}}}}}, {"name": "107476", "op": "Const", "attr": {"dtype": {"type": "DT_FLOAT"}, "value": {"tensor": {"dtype": "DT_FLOAT", "tensorShape": {"dim": [{"size": "3"}, {"size": "3"}, {"size": "256"}, {"size": "64"}]}}}}}, {"name": "107488", "op": "Const", "attr": {"dtype": {"type": "DT_FLOAT"}, "value": {"tensor": {"dtype": "DT_FLOAT", "tensorShape": {"dim": [{"size": "64"}]}}}}}, {"name": "107500", "op": "Const", "attr": {"value": {"tensor": {"dtype": "DT_FLOAT", "tensorShape": {"dim": [{"size": "3"}, {"size": "3"}, {"size": "64"}, {"size": "64"}]}}}, "dtype": {"type": "DT_FLOAT"}}}, {"name": "107512", "op": "Const", "attr": {"dtype": {"type": "DT_FLOAT"}, "value": {"tensor": {"dtype": "DT_FLOAT", "tensorShape": {"dim": [{"size": "64"}]}}}}}, {"name": "107524", "op": "Const", "attr": {"value": {"tensor": {"dtype": "DT_FLOAT", "tensorShape": {"dim": [{"size": "1"}, {"size": "1"}, {"size": "64"}, {"size": "64"}]}}}, "dtype": {"type": "DT_FLOAT"}}}, {"name": "107534", "op": "Const", "attr": {"value": {"tensor": {"dtype": "DT_FLOAT", "tensorShape": {"dim": [{"size": "64"}]}}}, "dtype": {"type": "DT_FLOAT"}}}, {"name": "107474", "op": "Const", "attr": {"dtype": {"type": "DT_FLOAT"}, "value": {"tensor": {"dtype": "DT_FLOAT", "tensorShape": {"dim": [{"size": "3"}, {"size": "3"}, {"size": "256"}, {"size": "64"}]}}}}}, {"name": "107486", "op": "Const", "attr": {"value": {"tensor": {"dtype": "DT_FLOAT", "tensorShape": {"dim": [{"size": "64"}]}}}, "dtype": {"type": "DT_FLOAT"}}}, {"name": "107498", "op": "Const", "attr": {"dtype": {"type": "DT_FLOAT"}, "value": {"tensor": {"dtype": "DT_FLOAT", "tensorShape": {"dim": [{"size": "3"}, {"size": "3"}, {"size": "64"}, {"size": "64"}]}}}}}, {"name": "107510", "op": "Const", "attr": {"dtype": {"type": "DT_FLOAT"}, "value": {"tensor": {"dtype": "DT_FLOAT", "tensorShape": {"dim": [{"size": "64"}]}}}}}, {"name": "107522", "op": "Const", "attr": {"dtype": {"type": "DT_FLOAT"}, "value": {"tensor": {"dtype": "DT_FLOAT", "tensorShape": {"dim": [{"size": "1"}, {"size": "1"}, {"size": "64"}, {"size": "1"}]}}}}}, {"name": "107536", "op": "Const", "attr": {"value": {"tensor": {"dtype": "DT_FLOAT", "tensorShape": {"dim": [{"size": "1"}]}}}, "dtype": {"type": "DT_FLOAT"}}}, {"name": "PartitionedCall/model_146/tf.concat_141/concat/axis", "op": "Const", "attr": {"value": {"tensor": {"dtype": "DT_INT32", "tensorShape": {}}}, "dtype": {"type": "DT_INT32"}}}, {"name": "PartitionedCall/model_146/tf.compat.v1.transpose_228/transpose/perm", "op": "Const", "attr": {"dtype": {"type": "DT_INT32"}, "value": {"tensor": {"dtype": "DT_INT32", "tensorShape": {"dim": [{"size": "4"}]}}}}}, {"name": "PartitionedCall/model_146/tf.reshape_111/Reshape/shape", "op": "Const", "attr": {"dtype": {"type": "DT_INT32"}, "value": {"tensor": {"dtype": "DT_INT32", "tensorShape": {"dim": [{"size": "3"}]}}}}}, {"name": "PartitionedCall/model_146/tf.concat_143/concat/axis", "op": "Const", "attr": {"value": {"tensor": {"dtype": "DT_INT32", "tensorShape": {}}}, "dtype": {"type": "DT_INT32"}}}, {"name": "107614", "op": "Const", "attr": {"value": {"tensor": {"dtype": "DT_INT64", "tensorShape": {"dim": [{"size": "3"}]}}}, "dtype": {"type": "DT_INT64"}}}, {"name": "107616", "op": "Const", "attr": {"dtype": {"type": "DT_INT64"}, "value": {"tensor": {"dtype": "DT_INT64", "tensorShape": {"dim": [{"size": "3"}]}}}}}, {"name": "PartitionedCall/model_146/tf.strided_slice_125/StridedSlice/strides", "op": "Const", "attr": {"value": {"tensor": {"dtype": "DT_INT64", "tensorShape": {"dim": [{"size": "3"}]}}}, "dtype": {"type": "DT_INT64"}}}, {"name": "107588", "op": "Const", "attr": {"dtype": {"type": "DT_INT64"}, "value": {"tensor": {"dtype": "DT_INT64", "tensorShape": {"dim": [{"size": "4"}]}}}}}, {"name": "107590", "op": "Const", "attr": {"dtype": {"type": "DT_INT64"}, "value": {"tensor": {"dtype": "DT_INT64", "tensorShape": {"dim": [{"size": "4"}]}}}}}, {"name": "PartitionedCall/model_146/tf.strided_slice_126/StridedSlice/strides", "op": "Const", "attr": {"value": {"tensor": {"dtype": "DT_INT64", "tensorShape": {"dim": [{"size": "4"}]}}}, "dtype": {"type": "DT_INT64"}}}, {"name": "107600", "op": "Const", "attr": {"dtype": {"type": "DT_FLOAT"}, "value": {"tensor": {"dtype": "DT_FLOAT", "tensorShape": {"dim": [{"size": "1"}, {"size": "1"}, {"size": "1"}, {"size": "1"}]}}}}}, {"name": "107610", "op": "Const", "attr": {"dtype": {"type": "DT_FLOAT"}, "value": {"tensor": {"dtype": "DT_FLOAT", "tensorShape": {"dim": [{"size": "1"}, {"size": "1"}, {"size": "2"}, {"size": "8400"}]}}}}}, {"name": "PartitionedCall/model_146/tf.math.multiply_1719/Mul/y", "op": "Const", "attr": {"dtype": {"type": "DT_FLOAT"}, "value": {"tensor": {"dtype": "DT_FLOAT", "tensorShape": {"dim": [{"size": "1"}, {"size": "1"}, {"size": "1"}, {"size": "8400"}]}}}}}, {"name": "107550", "op": "Const", "attr": {"dtype": {"type": "DT_FLOAT"}, "value": {"tensor": {"dtype": "DT_FLOAT", "tensorShape": {"dim": [{"size": "3"}, {"size": "3"}, {"size": "64"}, {"size": "51"}]}}}}}, {"name": "107556", "op": "Const", "attr": {"value": {"tensor": {"dtype": "DT_FLOAT", "tensorShape": {"dim": [{"size": "51"}]}}}, "dtype": {"type": "DT_FLOAT"}}}, {"name": "107562", "op": "Const", "attr": {"dtype": {"type": "DT_FLOAT"}, "value": {"tensor": {"dtype": "DT_FLOAT", "tensorShape": {"dim": [{"size": "3"}, {"size": "3"}, {"size": "51"}, {"size": "51"}]}}}}}, {"name": "107572", "op": "Const", "attr": {"dtype": {"type": "DT_FLOAT"}, "value": {"tensor": {"dtype": "DT_FLOAT", "tensorShape": {"dim": [{"size": "51"}]}}}}}, {"name": "107578", "op": "Const", "attr": {"dtype": {"type": "DT_FLOAT"}, "value": {"tensor": {"dtype": "DT_FLOAT", "tensorShape": {"dim": [{"size": "1"}, {"size": "1"}, {"size": "51"}, {"size": "51"}]}}}}}, {"name": "107584", "op": "Const", "attr": {"value": {"tensor": {"dtype": "DT_FLOAT", "tensorShape": {"dim": [{"size": "51"}]}}}, "dtype": {"type": "DT_FLOAT"}}}, {"name": "PartitionedCall/model_146/tf.compat.v1.transpose_203/transpose/perm", "op": "Const", "attr": {"value": {"tensor": {"dtype": "DT_INT32", "tensorShape": {"dim": [{"size": "4"}]}}}, "dtype": {"type": "DT_INT32"}}}, {"name": "PartitionedCall/model_146/tf.reshape_96/Reshape/shape", "op": "Const", "attr": {"value": {"tensor": {"dtype": "DT_INT32", "tensorShape": {"dim": [{"size": "3"}]}}}, "dtype": {"type": "DT_INT32"}}}, {"name": "107548", "op": "Const", "attr": {"dtype": {"type": "DT_FLOAT"}, "value": {"tensor": {"dtype": "DT_FLOAT", "tensorShape": {"dim": [{"size": "3"}, {"size": "3"}, {"size": "128"}, {"size": "51"}]}}}}}, {"name": "107554", "op": "Const", "attr": {"value": {"tensor": {"dtype": "DT_FLOAT", "tensorShape": {"dim": [{"size": "51"}]}}}, "dtype": {"type": "DT_FLOAT"}}}, {"name": "107560", "op": "Const", "attr": {"dtype": {"type": "DT_FLOAT"}, "value": {"tensor": {"dtype": "DT_FLOAT", "tensorShape": {"dim": [{"size": "3"}, {"size": "3"}, {"size": "51"}, {"size": "51"}]}}}}}, {"name": "107570", "op": "Const", "attr": {"dtype": {"type": "DT_FLOAT"}, "value": {"tensor": {"dtype": "DT_FLOAT", "tensorShape": {"dim": [{"size": "51"}]}}}}}, {"name": "107576", "op": "Const", "attr": {"dtype": {"type": "DT_FLOAT"}, "value": {"tensor": {"dtype": "DT_FLOAT", "tensorShape": {"dim": [{"size": "1"}, {"size": "1"}, {"size": "51"}, {"size": "51"}]}}}}}, {"name": "107582", "op": "Const", "attr": {"dtype": {"type": "DT_FLOAT"}, "value": {"tensor": {"dtype": "DT_FLOAT", "tensorShape": {"dim": [{"size": "51"}]}}}}}, {"name": "PartitionedCall/model_146/tf.compat.v1.transpose_213/transpose/perm", "op": "Const", "attr": {"dtype": {"type": "DT_INT32"}, "value": {"tensor": {"dtype": "DT_INT32", "tensorShape": {"dim": [{"size": "4"}]}}}}}, {"name": "PartitionedCall/model_146/tf.reshape_102/Reshape/shape", "op": "Const", "attr": {"value": {"tensor": {"dtype": "DT_INT32", "tensorShape": {"dim": [{"size": "3"}]}}}, "dtype": {"type": "DT_INT32"}}}, {"name": "107466", "op": "Const", "attr": {"value": {"tensor": {"dtype": "DT_INT64", "tensorShape": {"dim": [{"size": "4"}]}}}, "dtype": {"type": "DT_INT64"}}}, {"name": "107468", "op": "Const", "attr": {"dtype": {"type": "DT_INT64"}, "value": {"tensor": {"dtype": "DT_INT64", "tensorShape": {"dim": [{"size": "4"}]}}}}}, {"name": "PartitionedCall/model_146/tf.strided_slice_122/ones_like", "op": "Const", "attr": {"dtype": {"type": "DT_INT64"}, "value": {"tensor": {"dtype": "DT_INT64", "tensorShape": {"dim": [{"size": "4"}]}}}}}, {"name": "107436", "op": "Const", "attr": {"value": {"tensor": {"dtype": "DT_INT64", "tensorShape": {"dim": [{"size": "4"}]}}}, "dtype": {"type": "DT_INT64"}}}, {"name": "107438", "op": "Const", "attr": {"dtype": {"type": "DT_INT64"}, "value": {"tensor": {"dtype": "DT_INT64", "tensorShape": {"dim": [{"size": "4"}]}}}}}, {"name": "PartitionedCall/model_146/tf.strided_slice_120/ones_like", "op": "Const", "attr": {"value": {"tensor": {"dtype": "DT_INT64", "tensorShape": {"dim": [{"size": "4"}]}}}, "dtype": {"type": "DT_INT64"}}}, {"name": "107406", "op": "Const", "attr": {"dtype": {"type": "DT_INT64"}, "value": {"tensor": {"dtype": "DT_INT64", "tensorShape": {"dim": [{"size": "4"}]}}}}}, {"name": "107408", "op": "Const", "attr": {"dtype": {"type": "DT_INT64"}, "value": {"tensor": {"dtype": "DT_INT64", "tensorShape": {"dim": [{"size": "4"}]}}}}}, {"name": "PartitionedCall/model_146/tf.strided_slice_118/ones_like", "op": "Const", "attr": {"value": {"tensor": {"dtype": "DT_INT64", "tensorShape": {"dim": [{"size": "4"}]}}}, "dtype": {"type": "DT_INT64"}}}, {"name": "PartitionedCall/model_146/tf.compat.v1.image.resize_nearest_neighbor_11/ResizeNearestNeighbor/size", "op": "Const", "attr": {"value": {"tensor": {"dtype": "DT_INT32", "tensorShape": {"dim": [{"size": "2"}]}}}, "dtype": {"type": "DT_INT32"}}}, {"name": "PartitionedCall/model_146/tf.concat_133/concat/axis", "op": "Const", "attr": {"value": {"tensor": {"dtype": "DT_INT32", "tensorShape": {}}}, "dtype": {"type": "DT_INT32"}}}, {"name": "107390", "op": "Const", "attr": {"value": {"tensor": {"dtype": "DT_FLOAT", "tensorShape": {"dim": [{"size": "1"}, {"size": "1"}, {"size": "192"}, {"size": "64"}]}}}, "dtype": {"type": "DT_FLOAT"}}}, {"name": "107392", "op": "Const", "attr": {"dtype": {"type": "DT_FLOAT"}, "value": {"tensor": {"dtype": "DT_FLOAT", "tensorShape": {"dim": [{"size": "64"}]}}}}}, {"name": "107394", "op": "Const", "attr": {"dtype": {"type": "DT_INT64"}, "value": {"tensor": {"dtype": "DT_INT64", "tensorShape": {"dim": [{"size": "4"}]}}}}}, {"name": "107396", "op": "Const", "attr": {"dtype": {"type": "DT_INT64"}, "value": {"tensor": {"dtype": "DT_INT64", "tensorShape": {"dim": [{"size": "4"}]}}}}}, {"name": "PartitionedCall/model_146/tf.strided_slice_119/ones_like", "op": "Const", "attr": {"value": {"tensor": {"dtype": "DT_INT64", "tensorShape": {"dim": [{"size": "4"}]}}}, "dtype": {"type": "DT_INT64"}}}, {"name": "107398", "op": "Const", "attr": {"value": {"tensor": {"dtype": "DT_FLOAT", "tensorShape": {"dim": [{"size": "3"}, {"size": "3"}, {"size": "32"}, {"size": "32"}]}}}, "dtype": {"type": "DT_FLOAT"}}}, {"name": "107400", "op": "Const", "attr": {"value": {"tensor": {"dtype": "DT_FLOAT", "tensorShape": {"dim": [{"size": "32"}]}}}, "dtype": {"type": "DT_FLOAT"}}}, {"name": "107402", "op": "Const", "attr": {"value": {"tensor": {"dtype": "DT_FLOAT", "tensorShape": {"dim": [{"size": "3"}, {"size": "3"}, {"size": "32"}, {"size": "32"}]}}}, "dtype": {"type": "DT_FLOAT"}}}, {"name": "107404", "op": "Const", "attr": {"dtype": {"type": "DT_FLOAT"}, "value": {"tensor": {"dtype": "DT_FLOAT", "tensorShape": {"dim": [{"size": "32"}]}}}}}, {"name": "PartitionedCall/model_146/tf.concat_134/concat/axis", "op": "Const", "attr": {"value": {"tensor": {"dtype": "DT_INT32", "tensorShape": {}}}, "dtype": {"type": "DT_INT32"}}}, {"name": "107410", "op": "Const", "attr": {"value": {"tensor": {"dtype": "DT_FLOAT", "tensorShape": {"dim": [{"size": "1"}, {"size": "1"}, {"size": "96"}, {"size": "64"}]}}}, "dtype": {"type": "DT_FLOAT"}}}, {"name": "107412", "op": "Const", "attr": {"dtype": {"type": "DT_FLOAT"}, "value": {"tensor": {"dtype": "DT_FLOAT", "tensorShape": {"dim": [{"size": "64"}]}}}}}, {"name": "107414", "op": "Const", "attr": {"value": {"tensor": {"dtype": "DT_INT32", "tensorShape": {"dim": [{"size": "4"}, {"size": "2"}]}}}, "dtype": {"type": "DT_INT32"}}}, {"name": "107416", "op": "Const", "attr": {"value": {"tensor": {"dtype": "DT_FLOAT", "tensorShape": {"dim": [{"size": "3"}, {"size": "3"}, {"size": "64"}, {"size": "64"}]}}}, "dtype": {"type": "DT_FLOAT"}}}, {"name": "107418", "op": "Const", "attr": {"dtype": {"type": "DT_FLOAT"}, "value": {"tensor": {"dtype": "DT_FLOAT", "tensorShape": {"dim": [{"size": "64"}]}}}}}, {"name": "107382", "op": "Const", "attr": {"value": {"tensor": {"dtype": "DT_INT64", "tensorShape": {"dim": [{"size": "4"}]}}}, "dtype": {"type": "DT_INT64"}}}, {"name": "107384", "op": "Const", "attr": {"dtype": {"type": "DT_INT64"}, "value": {"tensor": {"dtype": "DT_INT64", "tensorShape": {"dim": [{"size": "4"}]}}}}}, {"name": "PartitionedCall/model_146/tf.strided_slice_116/ones_like", "op": "Const", "attr": {"value": {"tensor": {"dtype": "DT_INT64", "tensorShape": {"dim": [{"size": "4"}]}}}, "dtype": {"type": "DT_INT64"}}}, {"name": "PartitionedCall/model_146/tf.compat.v1.image.resize_nearest_neighbor_10/ResizeNearestNeighbor/size", "op": "Const", "attr": {"value": {"tensor": {"dtype": "DT_INT32", "tensorShape": {"dim": [{"size": "2"}]}}}, "dtype": {"type": "DT_INT32"}}}, {"name": "PartitionedCall/model_146/tf.concat_131/concat/axis", "op": "Const", "attr": {"dtype": {"type": "DT_INT32"}, "value": {"tensor": {"dtype": "DT_INT32", "tensorShape": {}}}}}, {"name": "107366", "op": "Const", "attr": {"value": {"tensor": {"dtype": "DT_FLOAT", "tensorShape": {"dim": [{"size": "1"}, {"size": "1"}, {"size": "384"}, {"size": "128"}]}}}, "dtype": {"type": "DT_FLOAT"}}}, {"name": "107368", "op": "Const", "attr": {"value": {"tensor": {"dtype": "DT_FLOAT", "tensorShape": {"dim": [{"size": "128"}]}}}, "dtype": {"type": "DT_FLOAT"}}}, {"name": "107370", "op": "Const", "attr": {"dtype": {"type": "DT_INT64"}, "value": {"tensor": {"dtype": "DT_INT64", "tensorShape": {"dim": [{"size": "4"}]}}}}}, {"name": "107372", "op": "Const", "attr": {"value": {"tensor": {"dtype": "DT_INT64", "tensorShape": {"dim": [{"size": "4"}]}}}, "dtype": {"type": "DT_INT64"}}}, {"name": "PartitionedCall/model_146/tf.strided_slice_117/ones_like", "op": "Const", "attr": {"value": {"tensor": {"dtype": "DT_INT64", "tensorShape": {"dim": [{"size": "4"}]}}}, "dtype": {"type": "DT_INT64"}}}, {"name": "107374", "op": "Const", "attr": {"value": {"tensor": {"dtype": "DT_FLOAT", "tensorShape": {"dim": [{"size": "3"}, {"size": "3"}, {"size": "64"}, {"size": "64"}]}}}, "dtype": {"type": "DT_FLOAT"}}}, {"name": "107376", "op": "Const", "attr": {"value": {"tensor": {"dtype": "DT_FLOAT", "tensorShape": {"dim": [{"size": "64"}]}}}, "dtype": {"type": "DT_FLOAT"}}}, {"name": "107378", "op": "Const", "attr": {"value": {"tensor": {"dtype": "DT_FLOAT", "tensorShape": {"dim": [{"size": "3"}, {"size": "3"}, {"size": "64"}, {"size": "64"}]}}}, "dtype": {"type": "DT_FLOAT"}}}, {"name": "107380", "op": "Const", "attr": {"dtype": {"type": "DT_FLOAT"}, "value": {"tensor": {"dtype": "DT_FLOAT", "tensorShape": {"dim": [{"size": "64"}]}}}}}, {"name": "PartitionedCall/model_146/tf.concat_132/concat/axis", "op": "Const", "attr": {"dtype": {"type": "DT_INT32"}, "value": {"tensor": {"dtype": "DT_INT32", "tensorShape": {}}}}}, {"name": "107386", "op": "Const", "attr": {"dtype": {"type": "DT_FLOAT"}, "value": {"tensor": {"dtype": "DT_FLOAT", "tensorShape": {"dim": [{"size": "1"}, {"size": "1"}, {"size": "192"}, {"size": "128"}]}}}}}, {"name": "107388", "op": "Const", "attr": {"dtype": {"type": "DT_FLOAT"}, "value": {"tensor": {"dtype": "DT_FLOAT", "tensorShape": {"dim": [{"size": "128"}]}}}}}, {"name": "PartitionedCall/model_146/tf.concat_135/concat/axis", "op": "Const", "attr": {"value": {"tensor": {"dtype": "DT_INT32", "tensorShape": {}}}, "dtype": {"type": "DT_INT32"}}}, {"name": "107420", "op": "Const", "attr": {"value": {"tensor": {"dtype": "DT_FLOAT", "tensorShape": {"dim": [{"size": "1"}, {"size": "1"}, {"size": "192"}, {"size": "128"}]}}}, "dtype": {"type": "DT_FLOAT"}}}, {"name": "107422", "op": "Const", "attr": {"dtype": {"type": "DT_FLOAT"}, "value": {"tensor": {"dtype": "DT_FLOAT", "tensorShape": {"dim": [{"size": "128"}]}}}}}, {"name": "107424", "op": "Const", "attr": {"value": {"tensor": {"dtype": "DT_INT64", "tensorShape": {"dim": [{"size": "4"}]}}}, "dtype": {"type": "DT_INT64"}}}, {"name": "107426", "op": "Const", "attr": {"value": {"tensor": {"dtype": "DT_INT64", "tensorShape": {"dim": [{"size": "4"}]}}}, "dtype": {"type": "DT_INT64"}}}, {"name": "PartitionedCall/model_146/tf.strided_slice_121/ones_like", "op": "Const", "attr": {"dtype": {"type": "DT_INT64"}, "value": {"tensor": {"dtype": "DT_INT64", "tensorShape": {"dim": [{"size": "4"}]}}}}}, {"name": "107428", "op": "Const", "attr": {"dtype": {"type": "DT_FLOAT"}, "value": {"tensor": {"dtype": "DT_FLOAT", "tensorShape": {"dim": [{"size": "3"}, {"size": "3"}, {"size": "64"}, {"size": "64"}]}}}}}, {"name": "107430", "op": "Const", "attr": {"value": {"tensor": {"dtype": "DT_FLOAT", "tensorShape": {"dim": [{"size": "64"}]}}}, "dtype": {"type": "DT_FLOAT"}}}, {"name": "107432", "op": "Const", "attr": {"dtype": {"type": "DT_FLOAT"}, "value": {"tensor": {"dtype": "DT_FLOAT", "tensorShape": {"dim": [{"size": "3"}, {"size": "3"}, {"size": "64"}, {"size": "64"}]}}}}}, {"name": "107434", "op": "Const", "attr": {"dtype": {"type": "DT_FLOAT"}, "value": {"tensor": {"dtype": "DT_FLOAT", "tensorShape": {"dim": [{"size": "64"}]}}}}}, {"name": "PartitionedCall/model_146/tf.concat_137/concat/axis", "op": "Const", "attr": {"value": {"tensor": {"dtype": "DT_INT32", "tensorShape": {}}}, "dtype": {"type": "DT_INT32"}}}, {"name": "107440", "op": "Const", "attr": {"dtype": {"type": "DT_FLOAT"}, "value": {"tensor": {"dtype": "DT_FLOAT", "tensorShape": {"dim": [{"size": "1"}, {"size": "1"}, {"size": "192"}, {"size": "128"}]}}}}}, {"name": "107442", "op": "Const", "attr": {"value": {"tensor": {"dtype": "DT_FLOAT", "tensorShape": {"dim": [{"size": "128"}]}}}, "dtype": {"type": "DT_FLOAT"}}}, {"name": "107444", "op": "Const", "attr": {"value": {"tensor": {"dtype": "DT_INT32", "tensorShape": {"dim": [{"size": "4"}, {"size": "2"}]}}}, "dtype": {"type": "DT_INT32"}}}, {"name": "107446", "op": "Const", "attr": {"value": {"tensor": {"dtype": "DT_FLOAT", "tensorShape": {"dim": [{"size": "3"}, {"size": "3"}, {"size": "128"}, {"size": "128"}]}}}, "dtype": {"type": "DT_FLOAT"}}}, {"name": "107448", "op": "Const", "attr": {"value": {"tensor": {"dtype": "DT_FLOAT", "tensorShape": {"dim": [{"size": "128"}]}}}, "dtype": {"type": "DT_FLOAT"}}}, {"name": "107350", "op": "Const", "attr": {"dtype": {"type": "DT_INT64"}, "value": {"tensor": {"dtype": "DT_INT64", "tensorShape": {"dim": [{"size": "4"}]}}}}}, {"name": "107352", "op": "Const", "attr": {"value": {"tensor": {"dtype": "DT_INT64", "tensorShape": {"dim": [{"size": "4"}]}}}, "dtype": {"type": "DT_INT64"}}}, {"name": "PartitionedCall/model_146/tf.strided_slice_114/ones_like", "op": "Const", "attr": {"value": {"tensor": {"dtype": "DT_INT64", "tensorShape": {"dim": [{"size": "4"}]}}}, "dtype": {"type": "DT_INT64"}}}, {"name": "107320", "op": "Const", "attr": {"dtype": {"type": "DT_INT64"}, "value": {"tensor": {"dtype": "DT_INT64", "tensorShape": {"dim": [{"size": "4"}]}}}}}, {"name": "107322", "op": "Const", "attr": {"dtype": {"type": "DT_INT64"}, "value": {"tensor": {"dtype": "DT_INT64", "tensorShape": {"dim": [{"size": "4"}]}}}}}, {"name": "PartitionedCall/model_146/tf.strided_slice_112/ones_like", "op": "Const", "attr": {"value": {"tensor": {"dtype": "DT_INT64", "tensorShape": {"dim": [{"size": "4"}]}}}, "dtype": {"type": "DT_INT64"}}}, {"name": "107282", "op": "Const", "attr": {"dtype": {"type": "DT_INT64"}, "value": {"tensor": {"dtype": "DT_INT64", "tensorShape": {"dim": [{"size": "4"}]}}}}}, {"name": "107284", "op": "Const", "attr": {"dtype": {"type": "DT_INT64"}, "value": {"tensor": {"dtype": "DT_INT64", "tensorShape": {"dim": [{"size": "4"}]}}}}}, {"name": "PartitionedCall/model_146/tf.strided_slice_110/ones_like", "op": "Const", "attr": {"dtype": {"type": "DT_INT64"}, "value": {"tensor": {"dtype": "DT_INT64", "tensorShape": {"dim": [{"size": "4"}]}}}}}, {"name": "107244", "op": "Const", "attr": {"value": {"tensor": {"dtype": "DT_INT64", "tensorShape": {"dim": [{"size": "4"}]}}}, "dtype": {"type": "DT_INT64"}}}, {"name": "107246", "op": "Const", "attr": {"dtype": {"type": "DT_INT64"}, "value": {"tensor": {"dtype": "DT_INT64", "tensorShape": {"dim": [{"size": "4"}]}}}}}, {"name": "PartitionedCall/model_146/tf.strided_slice_108/ones_like", "op": "Const", "attr": {"value": {"tensor": {"dtype": "DT_INT64", "tensorShape": {"dim": [{"size": "4"}]}}}, "dtype": {"type": "DT_INT64"}}}, {"name": "107216", "op": "Const", "attr": {"dtype": {"type": "DT_INT32"}, "value": {"tensor": {"dtype": "DT_INT32", "tensorShape": {"dim": [{"size": "4"}, {"size": "2"}]}}}}}, {"name": "107218", "op": "Const", "attr": {"value": {"tensor": {"dtype": "DT_FLOAT", "tensorShape": {"dim": [{"size": "3"}, {"size": "3"}, {"size": "3"}, {"size": "16"}]}}}, "dtype": {"type": "DT_FLOAT"}}}, {"name": "107220", "op": "Const", "attr": {"dtype": {"type": "DT_FLOAT"}, "value": {"tensor": {"dtype": "DT_FLOAT", "tensorShape": {"dim": [{"size": "16"}]}}}}}, {"name": "107222", "op": "Const", "attr": {"dtype": {"type": "DT_INT32"}, "value": {"tensor": {"dtype": "DT_INT32", "tensorShape": {"dim": [{"size": "4"}, {"size": "2"}]}}}}}, {"name": "107224", "op": "Const", "attr": {"dtype": {"type": "DT_FLOAT"}, "value": {"tensor": {"dtype": "DT_FLOAT", "tensorShape": {"dim": [{"size": "3"}, {"size": "3"}, {"size": "16"}, {"size": "32"}]}}}}}, {"name": "107226", "op": "Const", "attr": {"dtype": {"type": "DT_FLOAT"}, "value": {"tensor": {"dtype": "DT_FLOAT", "tensorShape": {"dim": [{"size": "32"}]}}}}}, {"name": "107228", "op": "Const", "attr": {"dtype": {"type": "DT_FLOAT"}, "value": {"tensor": {"dtype": "DT_FLOAT", "tensorShape": {"dim": [{"size": "1"}, {"size": "1"}, {"size": "32"}, {"size": "32"}]}}}}}, {"name": "107230", "op": "Const", "attr": {"value": {"tensor": {"dtype": "DT_FLOAT", "tensorShape": {"dim": [{"size": "32"}]}}}, "dtype": {"type": "DT_FLOAT"}}}, {"name": "107232", "op": "Const", "attr": {"value": {"tensor": {"dtype": "DT_INT64", "tensorShape": {"dim": [{"size": "4"}]}}}, "dtype": {"type": "DT_INT64"}}}, {"name": "107234", "op": "Const", "attr": {"value": {"tensor": {"dtype": "DT_INT64", "tensorShape": {"dim": [{"size": "4"}]}}}, "dtype": {"type": "DT_INT64"}}}, {"name": "PartitionedCall/model_146/tf.strided_slice_109/ones_like", "op": "Const", "attr": {"dtype": {"type": "DT_INT64"}, "value": {"tensor": {"dtype": "DT_INT64", "tensorShape": {"dim": [{"size": "4"}]}}}}}, {"name": "107236", "op": "Const", "attr": {"dtype": {"type": "DT_FLOAT"}, "value": {"tensor": {"dtype": "DT_FLOAT", "tensorShape": {"dim": [{"size": "3"}, {"size": "3"}, {"size": "16"}, {"size": "16"}]}}}}}, {"name": "107238", "op": "Const", "attr": {"value": {"tensor": {"dtype": "DT_FLOAT", "tensorShape": {"dim": [{"size": "16"}]}}}, "dtype": {"type": "DT_FLOAT"}}}, {"name": "107240", "op": "Const", "attr": {"value": {"tensor": {"dtype": "DT_FLOAT", "tensorShape": {"dim": [{"size": "3"}, {"size": "3"}, {"size": "16"}, {"size": "16"}]}}}, "dtype": {"type": "DT_FLOAT"}}}, {"name": "107242", "op": "Const", "attr": {"dtype": {"type": "DT_FLOAT"}, "value": {"tensor": {"dtype": "DT_FLOAT", "tensorShape": {"dim": [{"size": "16"}]}}}}}, {"name": "PartitionedCall/model_146/tf.concat_126/concat/axis", "op": "Const", "attr": {"value": {"tensor": {"dtype": "DT_INT32", "tensorShape": {}}}, "dtype": {"type": "DT_INT32"}}}, {"name": "107248", "op": "Const", "attr": {"dtype": {"type": "DT_FLOAT"}, "value": {"tensor": {"dtype": "DT_FLOAT", "tensorShape": {"dim": [{"size": "1"}, {"size": "1"}, {"size": "48"}, {"size": "32"}]}}}}}, {"name": "107250", "op": "Const", "attr": {"dtype": {"type": "DT_FLOAT"}, "value": {"tensor": {"dtype": "DT_FLOAT", "tensorShape": {"dim": [{"size": "32"}]}}}}}, {"name": "107252", "op": "Const", "attr": {"value": {"tensor": {"dtype": "DT_INT32", "tensorShape": {"dim": [{"size": "4"}, {"size": "2"}]}}}, "dtype": {"type": "DT_INT32"}}}, {"name": "107254", "op": "Const", "attr": {"value": {"tensor": {"dtype": "DT_FLOAT", "tensorShape": {"dim": [{"size": "3"}, {"size": "3"}, {"size": "32"}, {"size": "64"}]}}}, "dtype": {"type": "DT_FLOAT"}}}, {"name": "107256", "op": "Const", "attr": {"dtype": {"type": "DT_FLOAT"}, "value": {"tensor": {"dtype": "DT_FLOAT", "tensorShape": {"dim": [{"size": "64"}]}}}}}, {"name": "107258", "op": "Const", "attr": {"value": {"tensor": {"dtype": "DT_FLOAT", "tensorShape": {"dim": [{"size": "1"}, {"size": "1"}, {"size": "64"}, {"size": "64"}]}}}, "dtype": {"type": "DT_FLOAT"}}}, {"name": "107260", "op": "Const", "attr": {"value": {"tensor": {"dtype": "DT_FLOAT", "tensorShape": {"dim": [{"size": "64"}]}}}, "dtype": {"type": "DT_FLOAT"}}}, {"name": "107262", "op": "Const", "attr": {"value": {"tensor": {"dtype": "DT_INT64", "tensorShape": {"dim": [{"size": "4"}]}}}, "dtype": {"type": "DT_INT64"}}}, {"name": "107264", "op": "Const", "attr": {"dtype": {"type": "DT_INT64"}, "value": {"tensor": {"dtype": "DT_INT64", "tensorShape": {"dim": [{"size": "4"}]}}}}}, {"name": "PartitionedCall/model_146/tf.strided_slice_111/ones_like", "op": "Const", "attr": {"value": {"tensor": {"dtype": "DT_INT64", "tensorShape": {"dim": [{"size": "4"}]}}}, "dtype": {"type": "DT_INT64"}}}, {"name": "107266", "op": "Const", "attr": {"dtype": {"type": "DT_FLOAT"}, "value": {"tensor": {"dtype": "DT_FLOAT", "tensorShape": {"dim": [{"size": "3"}, {"size": "3"}, {"size": "32"}, {"size": "32"}]}}}}}, {"name": "107268", "op": "Const", "attr": {"value": {"tensor": {"dtype": "DT_FLOAT", "tensorShape": {"dim": [{"size": "32"}]}}}, "dtype": {"type": "DT_FLOAT"}}}, {"name": "107270", "op": "Const", "attr": {"dtype": {"type": "DT_FLOAT"}, "value": {"tensor": {"dtype": "DT_FLOAT", "tensorShape": {"dim": [{"size": "3"}, {"size": "3"}, {"size": "32"}, {"size": "32"}]}}}}}, {"name": "107272", "op": "Const", "attr": {"dtype": {"type": "DT_FLOAT"}, "value": {"tensor": {"dtype": "DT_FLOAT", "tensorShape": {"dim": [{"size": "32"}]}}}}}, {"name": "107274", "op": "Const", "attr": {"dtype": {"type": "DT_FLOAT"}, "value": {"tensor": {"dtype": "DT_FLOAT", "tensorShape": {"dim": [{"size": "3"}, {"size": "3"}, {"size": "32"}, {"size": "32"}]}}}}}, {"name": "107276", "op": "Const", "attr": {"value": {"tensor": {"dtype": "DT_FLOAT", "tensorShape": {"dim": [{"size": "32"}]}}}, "dtype": {"type": "DT_FLOAT"}}}, {"name": "107278", "op": "Const", "attr": {"dtype": {"type": "DT_FLOAT"}, "value": {"tensor": {"dtype": "DT_FLOAT", "tensorShape": {"dim": [{"size": "3"}, {"size": "3"}, {"size": "32"}, {"size": "32"}]}}}}}, {"name": "107280", "op": "Const", "attr": {"value": {"tensor": {"dtype": "DT_FLOAT", "tensorShape": {"dim": [{"size": "32"}]}}}, "dtype": {"type": "DT_FLOAT"}}}, {"name": "PartitionedCall/model_146/tf.concat_127/concat/axis", "op": "Const", "attr": {"dtype": {"type": "DT_INT32"}, "value": {"tensor": {"dtype": "DT_INT32", "tensorShape": {}}}}}, {"name": "107286", "op": "Const", "attr": {"dtype": {"type": "DT_FLOAT"}, "value": {"tensor": {"dtype": "DT_FLOAT", "tensorShape": {"dim": [{"size": "1"}, {"size": "1"}, {"size": "128"}, {"size": "64"}]}}}}}, {"name": "107288", "op": "Const", "attr": {"value": {"tensor": {"dtype": "DT_FLOAT", "tensorShape": {"dim": [{"size": "64"}]}}}, "dtype": {"type": "DT_FLOAT"}}}, {"name": "107290", "op": "Const", "attr": {"dtype": {"type": "DT_INT32"}, "value": {"tensor": {"dtype": "DT_INT32", "tensorShape": {"dim": [{"size": "4"}, {"size": "2"}]}}}}}, {"name": "107292", "op": "Const", "attr": {"value": {"tensor": {"dtype": "DT_FLOAT", "tensorShape": {"dim": [{"size": "3"}, {"size": "3"}, {"size": "64"}, {"size": "128"}]}}}, "dtype": {"type": "DT_FLOAT"}}}, {"name": "107294", "op": "Const", "attr": {"dtype": {"type": "DT_FLOAT"}, "value": {"tensor": {"dtype": "DT_FLOAT", "tensorShape": {"dim": [{"size": "128"}]}}}}}, {"name": "107296", "op": "Const", "attr": {"dtype": {"type": "DT_FLOAT"}, "value": {"tensor": {"dtype": "DT_FLOAT", "tensorShape": {"dim": [{"size": "1"}, {"size": "1"}, {"size": "128"}, {"size": "128"}]}}}}}, {"name": "107298", "op": "Const", "attr": {"dtype": {"type": "DT_FLOAT"}, "value": {"tensor": {"dtype": "DT_FLOAT", "tensorShape": {"dim": [{"size": "128"}]}}}}}, {"name": "107300", "op": "Const", "attr": {"value": {"tensor": {"dtype": "DT_INT64", "tensorShape": {"dim": [{"size": "4"}]}}}, "dtype": {"type": "DT_INT64"}}}, {"name": "107302", "op": "Const", "attr": {"value": {"tensor": {"dtype": "DT_INT64", "tensorShape": {"dim": [{"size": "4"}]}}}, "dtype": {"type": "DT_INT64"}}}, {"name": "PartitionedCall/model_146/tf.strided_slice_113/ones_like", "op": "Const", "attr": {"dtype": {"type": "DT_INT64"}, "value": {"tensor": {"dtype": "DT_INT64", "tensorShape": {"dim": [{"size": "4"}]}}}}}, {"name": "107304", "op": "Const", "attr": {"value": {"tensor": {"dtype": "DT_FLOAT", "tensorShape": {"dim": [{"size": "3"}, {"size": "3"}, {"size": "64"}, {"size": "64"}]}}}, "dtype": {"type": "DT_FLOAT"}}}, {"name": "107306", "op": "Const", "attr": {"dtype": {"type": "DT_FLOAT"}, "value": {"tensor": {"dtype": "DT_FLOAT", "tensorShape": {"dim": [{"size": "64"}]}}}}}, {"name": "107308", "op": "Const", "attr": {"dtype": {"type": "DT_FLOAT"}, "value": {"tensor": {"dtype": "DT_FLOAT", "tensorShape": {"dim": [{"size": "3"}, {"size": "3"}, {"size": "64"}, {"size": "64"}]}}}}}, {"name": "107310", "op": "Const", "attr": {"dtype": {"type": "DT_FLOAT"}, "value": {"tensor": {"dtype": "DT_FLOAT", "tensorShape": {"dim": [{"size": "64"}]}}}}}, {"name": "107312", "op": "Const", "attr": {"dtype": {"type": "DT_FLOAT"}, "value": {"tensor": {"dtype": "DT_FLOAT", "tensorShape": {"dim": [{"size": "3"}, {"size": "3"}, {"size": "64"}, {"size": "64"}]}}}}}, {"name": "107314", "op": "Const", "attr": {"dtype": {"type": "DT_FLOAT"}, "value": {"tensor": {"dtype": "DT_FLOAT", "tensorShape": {"dim": [{"size": "64"}]}}}}}, {"name": "107316", "op": "Const", "attr": {"value": {"tensor": {"dtype": "DT_FLOAT", "tensorShape": {"dim": [{"size": "3"}, {"size": "3"}, {"size": "64"}, {"size": "64"}]}}}, "dtype": {"type": "DT_FLOAT"}}}, {"name": "107318", "op": "Const", "attr": {"dtype": {"type": "DT_FLOAT"}, "value": {"tensor": {"dtype": "DT_FLOAT", "tensorShape": {"dim": [{"size": "64"}]}}}}}, {"name": "PartitionedCall/model_146/tf.concat_128/concat/axis", "op": "Const", "attr": {"dtype": {"type": "DT_INT32"}, "value": {"tensor": {"dtype": "DT_INT32", "tensorShape": {}}}}}, {"name": "107324", "op": "Const", "attr": {"dtype": {"type": "DT_FLOAT"}, "value": {"tensor": {"dtype": "DT_FLOAT", "tensorShape": {"dim": [{"size": "1"}, {"size": "1"}, {"size": "256"}, {"size": "128"}]}}}}}, {"name": "107326", "op": "Const", "attr": {"dtype": {"type": "DT_FLOAT"}, "value": {"tensor": {"dtype": "DT_FLOAT", "tensorShape": {"dim": [{"size": "128"}]}}}}}, {"name": "107328", "op": "Const", "attr": {"dtype": {"type": "DT_INT32"}, "value": {"tensor": {"dtype": "DT_INT32", "tensorShape": {"dim": [{"size": "4"}, {"size": "2"}]}}}}}, {"name": "107330", "op": "Const", "attr": {"value": {"tensor": {"dtype": "DT_FLOAT", "tensorShape": {"dim": [{"size": "3"}, {"size": "3"}, {"size": "128"}, {"size": "256"}]}}}, "dtype": {"type": "DT_FLOAT"}}}, {"name": "107332", "op": "Const", "attr": {"value": {"tensor": {"dtype": "DT_FLOAT", "tensorShape": {"dim": [{"size": "256"}]}}}, "dtype": {"type": "DT_FLOAT"}}}, {"name": "107334", "op": "Const", "attr": {"dtype": {"type": "DT_FLOAT"}, "value": {"tensor": {"dtype": "DT_FLOAT", "tensorShape": {"dim": [{"size": "1"}, {"size": "1"}, {"size": "256"}, {"size": "256"}]}}}}}, {"name": "107336", "op": "Const", "attr": {"dtype": {"type": "DT_FLOAT"}, "value": {"tensor": {"dtype": "DT_FLOAT", "tensorShape": {"dim": [{"size": "256"}]}}}}}, {"name": "107338", "op": "Const", "attr": {"dtype": {"type": "DT_INT64"}, "value": {"tensor": {"dtype": "DT_INT64", "tensorShape": {"dim": [{"size": "4"}]}}}}}, {"name": "107340", "op": "Const", "attr": {"dtype": {"type": "DT_INT64"}, "value": {"tensor": {"dtype": "DT_INT64", "tensorShape": {"dim": [{"size": "4"}]}}}}}, {"name": "PartitionedCall/model_146/tf.strided_slice_115/ones_like", "op": "Const", "attr": {"dtype": {"type": "DT_INT64"}, "value": {"tensor": {"dtype": "DT_INT64", "tensorShape": {"dim": [{"size": "4"}]}}}}}, {"name": "107342", "op": "Const", "attr": {"value": {"tensor": {"dtype": "DT_FLOAT", "tensorShape": {"dim": [{"size": "3"}, {"size": "3"}, {"size": "128"}, {"size": "128"}]}}}, "dtype": {"type": "DT_FLOAT"}}}, {"name": "107344", "op": "Const", "attr": {"value": {"tensor": {"dtype": "DT_FLOAT", "tensorShape": {"dim": [{"size": "128"}]}}}, "dtype": {"type": "DT_FLOAT"}}}, {"name": "107346", "op": "Const", "attr": {"dtype": {"type": "DT_FLOAT"}, "value": {"tensor": {"dtype": "DT_FLOAT", "tensorShape": {"dim": [{"size": "3"}, {"size": "3"}, {"size": "128"}, {"size": "128"}]}}}}}, {"name": "107348", "op": "Const", "attr": {"value": {"tensor": {"dtype": "DT_FLOAT", "tensorShape": {"dim": [{"size": "128"}]}}}, "dtype": {"type": "DT_FLOAT"}}}, {"name": "PartitionedCall/model_146/tf.concat_129/concat/axis", "op": "Const", "attr": {"value": {"tensor": {"dtype": "DT_INT32", "tensorShape": {}}}, "dtype": {"type": "DT_INT32"}}}, {"name": "107354", "op": "Const", "attr": {"dtype": {"type": "DT_FLOAT"}, "value": {"tensor": {"dtype": "DT_FLOAT", "tensorShape": {"dim": [{"size": "1"}, {"size": "1"}, {"size": "384"}, {"size": "256"}]}}}}}, {"name": "107356", "op": "Const", "attr": {"value": {"tensor": {"dtype": "DT_FLOAT", "tensorShape": {"dim": [{"size": "256"}]}}}, "dtype": {"type": "DT_FLOAT"}}}, {"name": "107358", "op": "Const", "attr": {"dtype": {"type": "DT_FLOAT"}, "value": {"tensor": {"dtype": "DT_FLOAT", "tensorShape": {"dim": [{"size": "1"}, {"size": "1"}, {"size": "256"}, {"size": "128"}]}}}}}, {"name": "107360", "op": "Const", "attr": {"dtype": {"type": "DT_FLOAT"}, "value": {"tensor": {"dtype": "DT_FLOAT", "tensorShape": {"dim": [{"size": "128"}]}}}}}, {"name": "PartitionedCall/model_146/tf.concat_130/concat/axis", "op": "Const", "attr": {"dtype": {"type": "DT_INT32"}, "value": {"tensor": {"dtype": "DT_INT32", "tensorShape": {}}}}}, {"name": "107362", "op": "Const", "attr": {"dtype": {"type": "DT_FLOAT"}, "value": {"tensor": {"dtype": "DT_FLOAT", "tensorShape": {"dim": [{"size": "1"}, {"size": "1"}, {"size": "512"}, {"size": "256"}]}}}}}, {"name": "107364", "op": "Const", "attr": {"dtype": {"type": "DT_FLOAT"}, "value": {"tensor": {"dtype": "DT_FLOAT", "tensorShape": {"dim": [{"size": "256"}]}}}}}, {"name": "PartitionedCall/model_146/tf.concat_138/concat/axis", "op": "Const", "attr": {"value": {"tensor": {"dtype": "DT_INT32", "tensorShape": {}}}, "dtype": {"type": "DT_INT32"}}}, {"name": "107450", "op": "Const", "attr": {"dtype": {"type": "DT_FLOAT"}, "value": {"tensor": {"dtype": "DT_FLOAT", "tensorShape": {"dim": [{"size": "1"}, {"size": "1"}, {"size": "384"}, {"size": "256"}]}}}}}, {"name": "107452", "op": "Const", "attr": {"value": {"tensor": {"dtype": "DT_FLOAT", "tensorShape": {"dim": [{"size": "256"}]}}}, "dtype": {"type": "DT_FLOAT"}}}, {"name": "107454", "op": "Const", "attr": {"dtype": {"type": "DT_INT64"}, "value": {"tensor": {"dtype": "DT_INT64", "tensorShape": {"dim": [{"size": "4"}]}}}}}, {"name": "107456", "op": "Const", "attr": {"dtype": {"type": "DT_INT64"}, "value": {"tensor": {"dtype": "DT_INT64", "tensorShape": {"dim": [{"size": "4"}]}}}}}, {"name": "PartitionedCall/model_146/tf.strided_slice_123/ones_like", "op": "Const", "attr": {"value": {"tensor": {"dtype": "DT_INT64", "tensorShape": {"dim": [{"size": "4"}]}}}, "dtype": {"type": "DT_INT64"}}}, {"name": "107458", "op": "Const", "attr": {"value": {"tensor": {"dtype": "DT_FLOAT", "tensorShape": {"dim": [{"size": "3"}, {"size": "3"}, {"size": "128"}, {"size": "128"}]}}}, "dtype": {"type": "DT_FLOAT"}}}, {"name": "107460", "op": "Const", "attr": {"dtype": {"type": "DT_FLOAT"}, "value": {"tensor": {"dtype": "DT_FLOAT", "tensorShape": {"dim": [{"size": "128"}]}}}}}, {"name": "107462", "op": "Const", "attr": {"dtype": {"type": "DT_FLOAT"}, "value": {"tensor": {"dtype": "DT_FLOAT", "tensorShape": {"dim": [{"size": "3"}, {"size": "3"}, {"size": "128"}, {"size": "128"}]}}}}}, {"name": "107464", "op": "Const", "attr": {"dtype": {"type": "DT_FLOAT"}, "value": {"tensor": {"dtype": "DT_FLOAT", "tensorShape": {"dim": [{"size": "128"}]}}}}}, {"name": "PartitionedCall/model_146/tf.concat_140/concat/axis", "op": "Const", "attr": {"dtype": {"type": "DT_INT32"}, "value": {"tensor": {"dtype": "DT_INT32", "tensorShape": {}}}}}, {"name": "107470", "op": "Const", "attr": {"dtype": {"type": "DT_FLOAT"}, "value": {"tensor": {"dtype": "DT_FLOAT", "tensorShape": {"dim": [{"size": "1"}, {"size": "1"}, {"size": "384"}, {"size": "256"}]}}}}}, {"name": "107472", "op": "Const", "attr": {"value": {"tensor": {"dtype": "DT_FLOAT", "tensorShape": {"dim": [{"size": "256"}]}}}, "dtype": {"type": "DT_FLOAT"}}}, {"name": "107546", "op": "Const", "attr": {"value": {"tensor": {"dtype": "DT_FLOAT", "tensorShape": {"dim": [{"size": "3"}, {"size": "3"}, {"size": "256"}, {"size": "51"}]}}}, "dtype": {"type": "DT_FLOAT"}}}, {"name": "107552", "op": "Const", "attr": {"dtype": {"type": "DT_FLOAT"}, "value": {"tensor": {"dtype": "DT_FLOAT", "tensorShape": {"dim": [{"size": "51"}]}}}}}, {"name": "107558", "op": "Const", "attr": {"value": {"tensor": {"dtype": "DT_FLOAT", "tensorShape": {"dim": [{"size": "3"}, {"size": "3"}, {"size": "51"}, {"size": "51"}]}}}, "dtype": {"type": "DT_FLOAT"}}}, {"name": "107568", "op": "Const", "attr": {"value": {"tensor": {"dtype": "DT_FLOAT", "tensorShape": {"dim": [{"size": "51"}]}}}, "dtype": {"type": "DT_FLOAT"}}}, {"name": "107574", "op": "Const", "attr": {"dtype": {"type": "DT_FLOAT"}, "value": {"tensor": {"dtype": "DT_FLOAT", "tensorShape": {"dim": [{"size": "1"}, {"size": "1"}, {"size": "51"}, {"size": "51"}]}}}}}, {"name": "107580", "op": "Const", "attr": {"dtype": {"type": "DT_FLOAT"}, "value": {"tensor": {"dtype": "DT_FLOAT", "tensorShape": {"dim": [{"size": "51"}]}}}}}, {"name": "PartitionedCall/model_146/tf.compat.v1.transpose_223/transpose/perm", "op": "Const", "attr": {"value": {"tensor": {"dtype": "DT_INT32", "tensorShape": {"dim": [{"size": "4"}]}}}, "dtype": {"type": "DT_INT32"}}}, {"name": "PartitionedCall/model_146/tf.reshape_108/Reshape/shape", "op": "Const", "attr": {"dtype": {"type": "DT_INT32"}, "value": {"tensor": {"dtype": "DT_INT32", "tensorShape": {"dim": [{"size": "3"}]}}}}}, {"name": "PartitionedCall/model_146/tf.concat_142/concat/axis", "op": "Const", "attr": {"dtype": {"type": "DT_INT32"}, "value": {"tensor": {"dtype": "DT_INT32", "tensorShape": {}}}}}, {"name": "PartitionedCall/model_146/tf.reshape_114/Reshape/shape", "op": "Const", "attr": {"dtype": {"type": "DT_INT32"}, "value": {"tensor": {"dtype": "DT_INT32", "tensorShape": {"dim": [{"size": "4"}]}}}}}, {"name": "107606", "op": "Const", "attr": {"value": {"tensor": {"dtype": "DT_INT64", "tensorShape": {"dim": [{"size": "4"}]}}}, "dtype": {"type": "DT_INT64"}}}, {"name": "107608", "op": "Const", "attr": {"dtype": {"type": "DT_INT64"}, "value": {"tensor": {"dtype": "DT_INT64", "tensorShape": {"dim": [{"size": "4"}]}}}}}, {"name": "PartitionedCall/model_146/tf.strided_slice_127/StridedSlice/strides", "op": "Const", "attr": {"value": {"tensor": {"dtype": "DT_INT64", "tensorShape": {"dim": [{"size": "4"}]}}}, "dtype": {"type": "DT_INT64"}}}, {"name": "PartitionedCall/model_146/tf.concat_144/concat/axis", "op": "Const", "attr": {"value": {"tensor": {"dtype": "DT_INT32", "tensorShape": {}}}, "dtype": {"type": "DT_INT32"}}}, {"name": "PartitionedCall/model_146/tf.reshape_123/Reshape/shape", "op": "Const", "attr": {"dtype": {"type": "DT_INT32"}, "value": {"tensor": {"dtype": "DT_INT32", "tensorShape": {"dim": [{"size": "3"}]}}}}}, {"name": "PartitionedCall/model_146/output0/concat/axis", "op": "Const", "attr": {"value": {"tensor": {"dtype": "DT_INT32", "tensorShape": {}}}, "dtype": {"type": "DT_INT32"}}}, {"name": "x", "op": "Placeholder", "attr": {"dtype": {"type": "DT_FLOAT"}, "shape": {"shape": {"dim": [{"size": "1"}, {"size": "640"}, {"size": "640"}, {"size": "3"}]}}}}, {"name": "PartitionedCall/model_146/tf.compat.v1.pad_40/Pad", "op": "Pad", "input": ["x", "107216"], "attr": {"Tpaddings": {"type": "DT_INT32"}, "T": {"type": "DT_FLOAT"}}}, {"name": "PartitionedCall/model_146/tf.math.add_469/Add", "op": "_FusedConv2D", "input": ["PartitionedCall/model_146/tf.compat.v1.pad_40/Pad", "107218", "107220"], "device": "/device:CPU:0", "attr": {"filter_format": {"s": "SFdJTw=="}, "fused_ops": {"list": {"s": ["Qmlhc0FkZA=="]}}, "data_format": {"s": "TkhXQw=="}, "num_host_args": {"i": "0"}, "strides": {"list": {"i": ["1", "2", "2", "1"]}}, "leakyrelu_alpha": {"f": 0.2}, "T": {"type": "DT_FLOAT"}, "padding": {"s": "VkFMSUQ="}, "explicit_paddings": {"list": {}}, "dilations": {"list": {"i": ["1", "1", "1", "1"]}}, "TArgs": {"list": {"type": ["DT_FLOAT"]}}, "num_args": {"i": "1"}, "use_cudnn_on_gpu": {"b": true}, "epsilon": {"f": 0.0}}}, {"name": "PartitionedCall/model_146/tf.math.sigmoid_334/Sigmoid", "op": "Sigmoid", "input": ["PartitionedCall/model_146/tf.math.add_469/Add"], "attr": {"T": {"type": "DT_FLOAT"}}}, {"name": "PartitionedCall/model_146/tf.math.multiply_1457/Mul", "op": "Mul", "input": ["PartitionedCall/model_146/tf.math.add_469/Add", "PartitionedCall/model_146/tf.math.sigmoid_334/Sigmoid"], "attr": {"T": {"type": "DT_FLOAT"}}}, {"name": "PartitionedCall/model_146/tf.compat.v1.pad_41/Pad", "op": "Pad", "input": ["PartitionedCall/model_146/tf.math.multiply_1457/Mul", "107222"], "attr": {"Tpaddings": {"type": "DT_INT32"}, "T": {"type": "DT_FLOAT"}}}, {"name": "PartitionedCall/model_146/tf.math.add_470/Add", "op": "_FusedConv2D", "input": ["PartitionedCall/model_146/tf.compat.v1.pad_41/Pad", "107224", "107226"], "device": "/device:CPU:0", "attr": {"filter_format": {"s": "SFdJTw=="}, "data_format": {"s": "TkhXQw=="}, "fused_ops": {"list": {"s": ["Qmlhc0FkZA=="]}}, "strides": {"list": {"i": ["1", "2", "2", "1"]}}, "padding": {"s": "VkFMSUQ="}, "epsilon": {"f": 0.0}, "leakyrelu_alpha": {"f": 0.2}, "num_host_args": {"i": "0"}, "TArgs": {"list": {"type": ["DT_FLOAT"]}}, "use_cudnn_on_gpu": {"b": true}, "num_args": {"i": "1"}, "explicit_paddings": {"list": {}}, "dilations": {"list": {"i": ["1", "1", "1", "1"]}}, "T": {"type": "DT_FLOAT"}}}, {"name": "PartitionedCall/model_146/tf.math.sigmoid_335/Sigmoid", "op": "Sigmoid", "input": ["PartitionedCall/model_146/tf.math.add_470/Add"], "attr": {"T": {"type": "DT_FLOAT"}}}, {"name": "PartitionedCall/model_146/tf.math.multiply_1461/Mul", "op": "Mul", "input": ["PartitionedCall/model_146/tf.math.add_470/Add", "PartitionedCall/model_146/tf.math.sigmoid_335/Sigmoid"], "attr": {"T": {"type": "DT_FLOAT"}}}, {"name": "PartitionedCall/model_146/tf.math.add_471/Add", "op": "_FusedConv2D", "input": ["PartitionedCall/model_146/tf.math.multiply_1461/Mul", "107228", "107230"], "device": "/device:CPU:0", "attr": {"num_host_args": {"i": "0"}, "T": {"type": "DT_FLOAT"}, "dilations": {"list": {"i": ["1", "1", "1", "1"]}}, "data_format": {"s": "TkhXQw=="}, "TArgs": {"list": {"type": ["DT_FLOAT"]}}, "fused_ops": {"list": {"s": ["Qmlhc0FkZA=="]}}, "explicit_paddings": {"list": {}}, "use_cudnn_on_gpu": {"b": true}, "filter_format": {"s": "SFdJTw=="}, "strides": {"list": {"i": ["1", "1", "1", "1"]}}, "leakyrelu_alpha": {"f": 0.2}, "num_args": {"i": "1"}, "padding": {"s": "U0FNRQ=="}, "epsilon": {"f": 0.0}}}, {"name": "PartitionedCall/model_146/tf.math.sigmoid_336/Sigmoid", "op": "Sigmoid", "input": ["PartitionedCall/model_146/tf.math.add_471/Add"], "attr": {"T": {"type": "DT_FLOAT"}}}, {"name": "PartitionedCall/model_146/tf.math.multiply_1465/Mul", "op": "Mul", "input": ["PartitionedCall/model_146/tf.math.add_471/Add", "PartitionedCall/model_146/tf.math.sigmoid_336/Sigmoid"], "attr": {"T": {"type": "DT_FLOAT"}}}, {"name": "PartitionedCall/model_146/tf.strided_slice_108/StridedSlice", "op": "StridedSlice", "input": ["PartitionedCall/model_146/tf.math.multiply_1465/Mul", "107244", "107246", "PartitionedCall/model_146/tf.strided_slice_108/ones_like"], "attr": {"ellipsis_mask": {"i": "0"}, "Index": {"type": "DT_INT64"}, "shrink_axis_mask": {"i": "0"}, "T": {"type": "DT_FLOAT"}, "end_mask": {"i": "7"}, "begin_mask": {"i": "15"}, "new_axis_mask": {"i": "0"}}}, {"name": "PartitionedCall/model_146/tf.strided_slice_109/StridedSlice", "op": "StridedSlice", "input": ["PartitionedCall/model_146/tf.math.multiply_1465/Mul", "107232", "107234", "PartitionedCall/model_146/tf.strided_slice_109/ones_like"], "attr": {"new_axis_mask": {"i": "0"}, "ellipsis_mask": {"i": "0"}, "begin_mask": {"i": "7"}, "end_mask": {"i": "7"}, "shrink_axis_mask": {"i": "0"}, "Index": {"type": "DT_INT64"}, "T": {"type": "DT_FLOAT"}}}, {"name": "PartitionedCall/model_146/tf.math.add_472/Add", "op": "_FusedConv2D", "input": ["PartitionedCall/model_146/tf.strided_slice_109/StridedSlice", "107236", "107238"], "device": "/device:CPU:0", "attr": {"padding": {"s": "U0FNRQ=="}, "leakyrelu_alpha": {"f": 0.2}, "explicit_paddings": {"list": {}}, "fused_ops": {"list": {"s": ["Qmlhc0FkZA=="]}}, "epsilon": {"f": 0.0}, "TArgs": {"list": {"type": ["DT_FLOAT"]}}, "num_args": {"i": "1"}, "strides": {"list": {"i": ["1", "1", "1", "1"]}}, "filter_format": {"s": "SFdJTw=="}, "dilations": {"list": {"i": ["1", "1", "1", "1"]}}, "data_format": {"s": "TkhXQw=="}, "num_host_args": {"i": "0"}, "use_cudnn_on_gpu": {"b": true}, "T": {"type": "DT_FLOAT"}}}, {"name": "PartitionedCall/model_146/tf.math.sigmoid_337/Sigmoid", "op": "Sigmoid", "input": ["PartitionedCall/model_146/tf.math.add_472/Add"], "attr": {"T": {"type": "DT_FLOAT"}}}, {"name": "PartitionedCall/model_146/tf.math.multiply_1469/Mul", "op": "Mul", "input": ["PartitionedCall/model_146/tf.math.add_472/Add", "PartitionedCall/model_146/tf.math.sigmoid_337/Sigmoid"], "attr": {"T": {"type": "DT_FLOAT"}}}, {"name": "PartitionedCall/model_146/tf.math.add_473/Add", "op": "_FusedConv2D", "input": ["PartitionedCall/model_146/tf.math.multiply_1469/Mul", "107240", "107242"], "device": "/device:CPU:0", "attr": {"fused_ops": {"list": {"s": ["Qmlhc0FkZA=="]}}, "strides": {"list": {"i": ["1", "1", "1", "1"]}}, "explicit_paddings": {"list": {}}, "num_host_args": {"i": "0"}, "TArgs": {"list": {"type": ["DT_FLOAT"]}}, "epsilon": {"f": 0.0}, "padding": {"s": "U0FNRQ=="}, "T": {"type": "DT_FLOAT"}, "data_format": {"s": "TkhXQw=="}, "use_cudnn_on_gpu": {"b": true}, "filter_format": {"s": "SFdJTw=="}, "dilations": {"list": {"i": ["1", "1", "1", "1"]}}, "leakyrelu_alpha": {"f": 0.2}, "num_args": {"i": "1"}}}, {"name": "PartitionedCall/model_146/tf.math.sigmoid_338/Sigmoid", "op": "Sigmoid", "input": ["PartitionedCall/model_146/tf.math.add_473/Add"], "attr": {"T": {"type": "DT_FLOAT"}}}, {"name": "PartitionedCall/model_146/tf.math.multiply_1473/Mul", "op": "Mul", "input": ["PartitionedCall/model_146/tf.math.add_473/Add", "PartitionedCall/model_146/tf.math.sigmoid_338/Sigmoid"], "attr": {"T": {"type": "DT_FLOAT"}}}, {"name": "PartitionedCall/model_146/tf.math.add_475/Add", "op": "AddV2", "input": ["PartitionedCall/model_146/tf.strided_slice_109/StridedSlice", "PartitionedCall/model_146/tf.math.multiply_1473/Mul"], "attr": {"T": {"type": "DT_FLOAT"}}}, {"name": "PartitionedCall/model_146/tf.concat_126/concat", "op": "ConcatV2", "input": ["PartitionedCall/model_146/tf.strided_slice_108/StridedSlice", "PartitionedCall/model_146/tf.strided_slice_109/StridedSlice", "PartitionedCall/model_146/tf.math.add_475/Add", "PartitionedCall/model_146/tf.concat_126/concat/axis"], "attr": {"N": {"i": "3"}, "Tidx": {"type": "DT_INT32"}, "T": {"type": "DT_FLOAT"}}}, {"name": "PartitionedCall/model_146/tf.math.add_476/Add", "op": "_FusedConv2D", "input": ["PartitionedCall/model_146/tf.concat_126/concat", "107248", "107250"], "device": "/device:CPU:0", "attr": {"use_cudnn_on_gpu": {"b": true}, "fused_ops": {"list": {"s": ["Qmlhc0FkZA=="]}}, "leakyrelu_alpha": {"f": 0.2}, "dilations": {"list": {"i": ["1", "1", "1", "1"]}}, "filter_format": {"s": "SFdJTw=="}, "epsilon": {"f": 0.0}, "T": {"type": "DT_FLOAT"}, "strides": {"list": {"i": ["1", "1", "1", "1"]}}, "data_format": {"s": "TkhXQw=="}, "TArgs": {"list": {"type": ["DT_FLOAT"]}}, "padding": {"s": "U0FNRQ=="}, "num_args": {"i": "1"}, "num_host_args": {"i": "0"}, "explicit_paddings": {"list": {}}}}, {"name": "PartitionedCall/model_146/tf.math.sigmoid_339/Sigmoid", "op": "Sigmoid", "input": ["PartitionedCall/model_146/tf.math.add_476/Add"], "attr": {"T": {"type": "DT_FLOAT"}}}, {"name": "PartitionedCall/model_146/tf.math.multiply_1479/Mul", "op": "Mul", "input": ["PartitionedCall/model_146/tf.math.add_476/Add", "PartitionedCall/model_146/tf.math.sigmoid_339/Sigmoid"], "attr": {"T": {"type": "DT_FLOAT"}}}, {"name": "PartitionedCall/model_146/tf.compat.v1.pad_42/Pad", "op": "Pad", "input": ["PartitionedCall/model_146/tf.math.multiply_1479/Mul", "107252"], "attr": {"T": {"type": "DT_FLOAT"}, "Tpaddings": {"type": "DT_INT32"}}}, {"name": "PartitionedCall/model_146/tf.math.add_477/Add", "op": "_FusedConv2D", "input": ["PartitionedCall/model_146/tf.compat.v1.pad_42/Pad", "107254", "107256"], "device": "/device:CPU:0", "attr": {"TArgs": {"list": {"type": ["DT_FLOAT"]}}, "T": {"type": "DT_FLOAT"}, "explicit_paddings": {"list": {}}, "num_host_args": {"i": "0"}, "data_format": {"s": "TkhXQw=="}, "strides": {"list": {"i": ["1", "2", "2", "1"]}}, "use_cudnn_on_gpu": {"b": true}, "dilations": {"list": {"i": ["1", "1", "1", "1"]}}, "epsilon": {"f": 0.0}, "leakyrelu_alpha": {"f": 0.2}, "fused_ops": {"list": {"s": ["Qmlhc0FkZA=="]}}, "padding": {"s": "VkFMSUQ="}, "num_args": {"i": "1"}, "filter_format": {"s": "SFdJTw=="}}}, {"name": "PartitionedCall/model_146/tf.math.sigmoid_340/Sigmoid", "op": "Sigmoid", "input": ["PartitionedCall/model_146/tf.math.add_477/Add"], "attr": {"T": {"type": "DT_FLOAT"}}}, {"name": "PartitionedCall/model_146/tf.math.multiply_1483/Mul", "op": "Mul", "input": ["PartitionedCall/model_146/tf.math.add_477/Add", "PartitionedCall/model_146/tf.math.sigmoid_340/Sigmoid"], "attr": {"T": {"type": "DT_FLOAT"}}}, {"name": "PartitionedCall/model_146/tf.math.add_478/Add", "op": "_FusedConv2D", "input": ["PartitionedCall/model_146/tf.math.multiply_1483/Mul", "107258", "107260"], "device": "/device:CPU:0", "attr": {"leakyrelu_alpha": {"f": 0.2}, "num_args": {"i": "1"}, "T": {"type": "DT_FLOAT"}, "data_format": {"s": "TkhXQw=="}, "padding": {"s": "U0FNRQ=="}, "num_host_args": {"i": "0"}, "filter_format": {"s": "SFdJTw=="}, "strides": {"list": {"i": ["1", "1", "1", "1"]}}, "fused_ops": {"list": {"s": ["Qmlhc0FkZA=="]}}, "dilations": {"list": {"i": ["1", "1", "1", "1"]}}, "use_cudnn_on_gpu": {"b": true}, "explicit_paddings": {"list": {}}, "TArgs": {"list": {"type": ["DT_FLOAT"]}}, "epsilon": {"f": 0.0}}}, {"name": "PartitionedCall/model_146/tf.math.sigmoid_341/Sigmoid", "op": "Sigmoid", "input": ["PartitionedCall/model_146/tf.math.add_478/Add"], "attr": {"T": {"type": "DT_FLOAT"}}}, {"name": "PartitionedCall/model_146/tf.math.multiply_1487/Mul", "op": "Mul", "input": ["PartitionedCall/model_146/tf.math.add_478/Add", "PartitionedCall/model_146/tf.math.sigmoid_341/Sigmoid"], "attr": {"T": {"type": "DT_FLOAT"}}}, {"name": "PartitionedCall/model_146/tf.strided_slice_110/StridedSlice", "op": "StridedSlice", "input": ["PartitionedCall/model_146/tf.math.multiply_1487/Mul", "107282", "107284", "PartitionedCall/model_146/tf.strided_slice_110/ones_like"], "attr": {"shrink_axis_mask": {"i": "0"}, "new_axis_mask": {"i": "0"}, "ellipsis_mask": {"i": "0"}, "T": {"type": "DT_FLOAT"}, "end_mask": {"i": "7"}, "begin_mask": {"i": "15"}, "Index": {"type": "DT_INT64"}}}, {"name": "PartitionedCall/model_146/tf.strided_slice_111/StridedSlice", "op": "StridedSlice", "input": ["PartitionedCall/model_146/tf.math.multiply_1487/Mul", "107262", "107264", "PartitionedCall/model_146/tf.strided_slice_111/ones_like"], "attr": {"begin_mask": {"i": "7"}, "ellipsis_mask": {"i": "0"}, "Index": {"type": "DT_INT64"}, "shrink_axis_mask": {"i": "0"}, "T": {"type": "DT_FLOAT"}, "end_mask": {"i": "7"}, "new_axis_mask": {"i": "0"}}}, {"name": "PartitionedCall/model_146/tf.math.add_479/Add", "op": "_FusedConv2D", "input": ["PartitionedCall/model_146/tf.strided_slice_111/StridedSlice", "107266", "107268"], "device": "/device:CPU:0", "attr": {"num_args": {"i": "1"}, "num_host_args": {"i": "0"}, "T": {"type": "DT_FLOAT"}, "use_cudnn_on_gpu": {"b": true}, "leakyrelu_alpha": {"f": 0.2}, "explicit_paddings": {"list": {}}, "padding": {"s": "U0FNRQ=="}, "dilations": {"list": {"i": ["1", "1", "1", "1"]}}, "strides": {"list": {"i": ["1", "1", "1", "1"]}}, "fused_ops": {"list": {"s": ["Qmlhc0FkZA=="]}}, "data_format": {"s": "TkhXQw=="}, "TArgs": {"list": {"type": ["DT_FLOAT"]}}, "epsilon": {"f": 0.0}, "filter_format": {"s": "SFdJTw=="}}}, {"name": "PartitionedCall/model_146/tf.math.sigmoid_342/Sigmoid", "op": "Sigmoid", "input": ["PartitionedCall/model_146/tf.math.add_479/Add"], "attr": {"T": {"type": "DT_FLOAT"}}}, {"name": "PartitionedCall/model_146/tf.math.multiply_1491/Mul", "op": "Mul", "input": ["PartitionedCall/model_146/tf.math.add_479/Add", "PartitionedCall/model_146/tf.math.sigmoid_342/Sigmoid"], "attr": {"T": {"type": "DT_FLOAT"}}}, {"name": "PartitionedCall/model_146/tf.math.add_480/Add", "op": "_FusedConv2D", "input": ["PartitionedCall/model_146/tf.math.multiply_1491/Mul", "107270", "107272"], "device": "/device:CPU:0", "attr": {"padding": {"s": "U0FNRQ=="}, "use_cudnn_on_gpu": {"b": true}, "epsilon": {"f": 0.0}, "TArgs": {"list": {"type": ["DT_FLOAT"]}}, "filter_format": {"s": "SFdJTw=="}, "dilations": {"list": {"i": ["1", "1", "1", "1"]}}, "num_args": {"i": "1"}, "data_format": {"s": "TkhXQw=="}, "strides": {"list": {"i": ["1", "1", "1", "1"]}}, "explicit_paddings": {"list": {}}, "num_host_args": {"i": "0"}, "T": {"type": "DT_FLOAT"}, "fused_ops": {"list": {"s": ["Qmlhc0FkZA=="]}}, "leakyrelu_alpha": {"f": 0.2}}}, {"name": "PartitionedCall/model_146/tf.math.sigmoid_343/Sigmoid", "op": "Sigmoid", "input": ["PartitionedCall/model_146/tf.math.add_480/Add"], "attr": {"T": {"type": "DT_FLOAT"}}}, {"name": "PartitionedCall/model_146/tf.math.multiply_1495/Mul", "op": "Mul", "input": ["PartitionedCall/model_146/tf.math.add_480/Add", "PartitionedCall/model_146/tf.math.sigmoid_343/Sigmoid"], "attr": {"T": {"type": "DT_FLOAT"}}}, {"name": "PartitionedCall/model_146/tf.math.add_482/Add", "op": "AddV2", "input": ["PartitionedCall/model_146/tf.strided_slice_111/StridedSlice", "PartitionedCall/model_146/tf.math.multiply_1495/Mul"], "attr": {"T": {"type": "DT_FLOAT"}}}, {"name": "PartitionedCall/model_146/tf.math.add_483/Add", "op": "_FusedConv2D", "input": ["PartitionedCall/model_146/tf.math.add_482/Add", "107274", "107276"], "device": "/device:CPU:0", "attr": {"use_cudnn_on_gpu": {"b": true}, "num_host_args": {"i": "0"}, "fused_ops": {"list": {"s": ["Qmlhc0FkZA=="]}}, "strides": {"list": {"i": ["1", "1", "1", "1"]}}, "dilations": {"list": {"i": ["1", "1", "1", "1"]}}, "num_args": {"i": "1"}, "data_format": {"s": "TkhXQw=="}, "TArgs": {"list": {"type": ["DT_FLOAT"]}}, "explicit_paddings": {"list": {}}, "padding": {"s": "U0FNRQ=="}, "leakyrelu_alpha": {"f": 0.2}, "epsilon": {"f": 0.0}, "filter_format": {"s": "SFdJTw=="}, "T": {"type": "DT_FLOAT"}}}, {"name": "PartitionedCall/model_146/tf.math.sigmoid_344/Sigmoid", "op": "Sigmoid", "input": ["PartitionedCall/model_146/tf.math.add_483/Add"], "attr": {"T": {"type": "DT_FLOAT"}}}, {"name": "PartitionedCall/model_146/tf.math.multiply_1501/Mul", "op": "Mul", "input": ["PartitionedCall/model_146/tf.math.add_483/Add", "PartitionedCall/model_146/tf.math.sigmoid_344/Sigmoid"], "attr": {"T": {"type": "DT_FLOAT"}}}, {"name": "PartitionedCall/model_146/tf.math.add_484/Add", "op": "_FusedConv2D", "input": ["PartitionedCall/model_146/tf.math.multiply_1501/Mul", "107278", "107280"], "device": "/device:CPU:0", "attr": {"fused_ops": {"list": {"s": ["Qmlhc0FkZA=="]}}, "num_args": {"i": "1"}, "strides": {"list": {"i": ["1", "1", "1", "1"]}}, "padding": {"s": "U0FNRQ=="}, "dilations": {"list": {"i": ["1", "1", "1", "1"]}}, "epsilon": {"f": 0.0}, "use_cudnn_on_gpu": {"b": true}, "filter_format": {"s": "SFdJTw=="}, "explicit_paddings": {"list": {}}, "data_format": {"s": "TkhXQw=="}, "leakyrelu_alpha": {"f": 0.2}, "T": {"type": "DT_FLOAT"}, "num_host_args": {"i": "0"}, "TArgs": {"list": {"type": ["DT_FLOAT"]}}}}, {"name": "PartitionedCall/model_146/tf.math.sigmoid_345/Sigmoid", "op": "Sigmoid", "input": ["PartitionedCall/model_146/tf.math.add_484/Add"], "attr": {"T": {"type": "DT_FLOAT"}}}, {"name": "PartitionedCall/model_146/tf.math.multiply_1505/Mul", "op": "Mul", "input": ["PartitionedCall/model_146/tf.math.add_484/Add", "PartitionedCall/model_146/tf.math.sigmoid_345/Sigmoid"], "attr": {"T": {"type": "DT_FLOAT"}}}, {"name": "PartitionedCall/model_146/tf.math.add_486/Add", "op": "AddV2", "input": ["PartitionedCall/model_146/tf.math.add_482/Add", "PartitionedCall/model_146/tf.math.multiply_1505/Mul"], "attr": {"T": {"type": "DT_FLOAT"}}}, {"name": "PartitionedCall/model_146/tf.concat_127/concat", "op": "ConcatV2", "input": ["PartitionedCall/model_146/tf.strided_slice_110/StridedSlice", "PartitionedCall/model_146/tf.strided_slice_111/StridedSlice", "PartitionedCall/model_146/tf.math.add_482/Add", "PartitionedCall/model_146/tf.math.add_486/Add", "PartitionedCall/model_146/tf.concat_127/concat/axis"], "attr": {"Tidx": {"type": "DT_INT32"}, "N": {"i": "4"}, "T": {"type": "DT_FLOAT"}}}, {"name": "PartitionedCall/model_146/tf.math.add_487/Add", "op": "_FusedConv2D", "input": ["PartitionedCall/model_146/tf.concat_127/concat", "107286", "107288"], "device": "/device:CPU:0", "attr": {"T": {"type": "DT_FLOAT"}, "TArgs": {"list": {"type": ["DT_FLOAT"]}}, "data_format": {"s": "TkhXQw=="}, "leakyrelu_alpha": {"f": 0.2}, "explicit_paddings": {"list": {}}, "dilations": {"list": {"i": ["1", "1", "1", "1"]}}, "epsilon": {"f": 0.0}, "fused_ops": {"list": {"s": ["Qmlhc0FkZA=="]}}, "strides": {"list": {"i": ["1", "1", "1", "1"]}}, "num_args": {"i": "1"}, "padding": {"s": "U0FNRQ=="}, "num_host_args": {"i": "0"}, "filter_format": {"s": "SFdJTw=="}, "use_cudnn_on_gpu": {"b": true}}}, {"name": "PartitionedCall/model_146/tf.math.sigmoid_346/Sigmoid", "op": "Sigmoid", "input": ["PartitionedCall/model_146/tf.math.add_487/Add"], "attr": {"T": {"type": "DT_FLOAT"}}}, {"name": "PartitionedCall/model_146/tf.math.multiply_1511/Mul", "op": "Mul", "input": ["PartitionedCall/model_146/tf.math.add_487/Add", "PartitionedCall/model_146/tf.math.sigmoid_346/Sigmoid"], "attr": {"T": {"type": "DT_FLOAT"}}}, {"name": "PartitionedCall/model_146/tf.compat.v1.pad_43/Pad", "op": "Pad", "input": ["PartitionedCall/model_146/tf.math.multiply_1511/Mul", "107290"], "attr": {"Tpaddings": {"type": "DT_INT32"}, "T": {"type": "DT_FLOAT"}}}, {"name": "PartitionedCall/model_146/tf.math.add_488/Add", "op": "_FusedConv2D", "input": ["PartitionedCall/model_146/tf.compat.v1.pad_43/Pad", "107292", "107294"], "device": "/device:CPU:0", "attr": {"leakyrelu_alpha": {"f": 0.2}, "padding": {"s": "VkFMSUQ="}, "num_args": {"i": "1"}, "filter_format": {"s": "SFdJTw=="}, "fused_ops": {"list": {"s": ["Qmlhc0FkZA=="]}}, "TArgs": {"list": {"type": ["DT_FLOAT"]}}, "T": {"type": "DT_FLOAT"}, "num_host_args": {"i": "0"}, "data_format": {"s": "TkhXQw=="}, "explicit_paddings": {"list": {}}, "epsilon": {"f": 0.0}, "dilations": {"list": {"i": ["1", "1", "1", "1"]}}, "use_cudnn_on_gpu": {"b": true}, "strides": {"list": {"i": ["1", "2", "2", "1"]}}}}, {"name": "PartitionedCall/model_146/tf.math.sigmoid_347/Sigmoid", "op": "Sigmoid", "input": ["PartitionedCall/model_146/tf.math.add_488/Add"], "attr": {"T": {"type": "DT_FLOAT"}}}, {"name": "PartitionedCall/model_146/tf.math.multiply_1515/Mul", "op": "Mul", "input": ["PartitionedCall/model_146/tf.math.add_488/Add", "PartitionedCall/model_146/tf.math.sigmoid_347/Sigmoid"], "attr": {"T": {"type": "DT_FLOAT"}}}, {"name": "PartitionedCall/model_146/tf.math.add_489/Add", "op": "_FusedConv2D", "input": ["PartitionedCall/model_146/tf.math.multiply_1515/Mul", "107296", "107298"], "device": "/device:CPU:0", "attr": {"leakyrelu_alpha": {"f": 0.2}, "num_args": {"i": "1"}, "explicit_paddings": {"list": {}}, "data_format": {"s": "TkhXQw=="}, "TArgs": {"list": {"type": ["DT_FLOAT"]}}, "fused_ops": {"list": {"s": ["Qmlhc0FkZA=="]}}, "T": {"type": "DT_FLOAT"}, "strides": {"list": {"i": ["1", "1", "1", "1"]}}, "padding": {"s": "U0FNRQ=="}, "epsilon": {"f": 0.0}, "use_cudnn_on_gpu": {"b": true}, "num_host_args": {"i": "0"}, "filter_format": {"s": "SFdJTw=="}, "dilations": {"list": {"i": ["1", "1", "1", "1"]}}}}, {"name": "PartitionedCall/model_146/tf.math.sigmoid_348/Sigmoid", "op": "Sigmoid", "input": ["PartitionedCall/model_146/tf.math.add_489/Add"], "attr": {"T": {"type": "DT_FLOAT"}}}, {"name": "PartitionedCall/model_146/tf.math.multiply_1519/Mul", "op": "Mul", "input": ["PartitionedCall/model_146/tf.math.add_489/Add", "PartitionedCall/model_146/tf.math.sigmoid_348/Sigmoid"], "attr": {"T": {"type": "DT_FLOAT"}}}, {"name": "PartitionedCall/model_146/tf.strided_slice_112/StridedSlice", "op": "StridedSlice", "input": ["PartitionedCall/model_146/tf.math.multiply_1519/Mul", "107320", "107322", "PartitionedCall/model_146/tf.strided_slice_112/ones_like"], "attr": {"T": {"type": "DT_FLOAT"}, "ellipsis_mask": {"i": "0"}, "new_axis_mask": {"i": "0"}, "begin_mask": {"i": "15"}, "Index": {"type": "DT_INT64"}, "end_mask": {"i": "7"}, "shrink_axis_mask": {"i": "0"}}}, {"name": "PartitionedCall/model_146/tf.strided_slice_113/StridedSlice", "op": "StridedSlice", "input": ["PartitionedCall/model_146/tf.math.multiply_1519/Mul", "107300", "107302", "PartitionedCall/model_146/tf.strided_slice_113/ones_like"], "attr": {"end_mask": {"i": "7"}, "begin_mask": {"i": "7"}, "ellipsis_mask": {"i": "0"}, "new_axis_mask": {"i": "0"}, "T": {"type": "DT_FLOAT"}, "Index": {"type": "DT_INT64"}, "shrink_axis_mask": {"i": "0"}}}, {"name": "PartitionedCall/model_146/tf.math.add_490/Add", "op": "_FusedConv2D", "input": ["PartitionedCall/model_146/tf.strided_slice_113/StridedSlice", "107304", "107306"], "device": "/device:CPU:0", "attr": {"use_cudnn_on_gpu": {"b": true}, "num_host_args": {"i": "0"}, "explicit_paddings": {"list": {}}, "padding": {"s": "U0FNRQ=="}, "fused_ops": {"list": {"s": ["Qmlhc0FkZA=="]}}, "num_args": {"i": "1"}, "dilations": {"list": {"i": ["1", "1", "1", "1"]}}, "TArgs": {"list": {"type": ["DT_FLOAT"]}}, "filter_format": {"s": "SFdJTw=="}, "data_format": {"s": "TkhXQw=="}, "leakyrelu_alpha": {"f": 0.2}, "epsilon": {"f": 0.0}, "strides": {"list": {"i": ["1", "1", "1", "1"]}}, "T": {"type": "DT_FLOAT"}}}, {"name": "PartitionedCall/model_146/tf.math.sigmoid_349/Sigmoid", "op": "Sigmoid", "input": ["PartitionedCall/model_146/tf.math.add_490/Add"], "attr": {"T": {"type": "DT_FLOAT"}}}, {"name": "PartitionedCall/model_146/tf.math.multiply_1523/Mul", "op": "Mul", "input": ["PartitionedCall/model_146/tf.math.add_490/Add", "PartitionedCall/model_146/tf.math.sigmoid_349/Sigmoid"], "attr": {"T": {"type": "DT_FLOAT"}}}, {"name": "PartitionedCall/model_146/tf.math.add_491/Add", "op": "_FusedConv2D", "input": ["PartitionedCall/model_146/tf.math.multiply_1523/Mul", "107308", "107310"], "device": "/device:CPU:0", "attr": {"TArgs": {"list": {"type": ["DT_FLOAT"]}}, "use_cudnn_on_gpu": {"b": true}, "fused_ops": {"list": {"s": ["Qmlhc0FkZA=="]}}, "explicit_paddings": {"list": {}}, "dilations": {"list": {"i": ["1", "1", "1", "1"]}}, "num_args": {"i": "1"}, "data_format": {"s": "TkhXQw=="}, "padding": {"s": "U0FNRQ=="}, "epsilon": {"f": 0.0}, "leakyrelu_alpha": {"f": 0.2}, "T": {"type": "DT_FLOAT"}, "num_host_args": {"i": "0"}, "filter_format": {"s": "SFdJTw=="}, "strides": {"list": {"i": ["1", "1", "1", "1"]}}}}, {"name": "PartitionedCall/model_146/tf.math.sigmoid_350/Sigmoid", "op": "Sigmoid", "input": ["PartitionedCall/model_146/tf.math.add_491/Add"], "attr": {"T": {"type": "DT_FLOAT"}}}, {"name": "PartitionedCall/model_146/tf.math.multiply_1527/Mul", "op": "Mul", "input": ["PartitionedCall/model_146/tf.math.add_491/Add", "PartitionedCall/model_146/tf.math.sigmoid_350/Sigmoid"], "attr": {"T": {"type": "DT_FLOAT"}}}, {"name": "PartitionedCall/model_146/tf.math.add_493/Add", "op": "AddV2", "input": ["PartitionedCall/model_146/tf.strided_slice_113/StridedSlice", "PartitionedCall/model_146/tf.math.multiply_1527/Mul"], "attr": {"T": {"type": "DT_FLOAT"}}}, {"name": "PartitionedCall/model_146/tf.math.add_494/Add", "op": "_FusedConv2D", "input": ["PartitionedCall/model_146/tf.math.add_493/Add", "107312", "107314"], "device": "/device:CPU:0", "attr": {"strides": {"list": {"i": ["1", "1", "1", "1"]}}, "fused_ops": {"list": {"s": ["Qmlhc0FkZA=="]}}, "T": {"type": "DT_FLOAT"}, "TArgs": {"list": {"type": ["DT_FLOAT"]}}, "leakyrelu_alpha": {"f": 0.2}, "dilations": {"list": {"i": ["1", "1", "1", "1"]}}, "filter_format": {"s": "SFdJTw=="}, "num_args": {"i": "1"}, "explicit_paddings": {"list": {}}, "epsilon": {"f": 0.0}, "data_format": {"s": "TkhXQw=="}, "num_host_args": {"i": "0"}, "use_cudnn_on_gpu": {"b": true}, "padding": {"s": "U0FNRQ=="}}}, {"name": "PartitionedCall/model_146/tf.math.sigmoid_351/Sigmoid", "op": "Sigmoid", "input": ["PartitionedCall/model_146/tf.math.add_494/Add"], "attr": {"T": {"type": "DT_FLOAT"}}}, {"name": "PartitionedCall/model_146/tf.math.multiply_1533/Mul", "op": "Mul", "input": ["PartitionedCall/model_146/tf.math.add_494/Add", "PartitionedCall/model_146/tf.math.sigmoid_351/Sigmoid"], "attr": {"T": {"type": "DT_FLOAT"}}}, {"name": "PartitionedCall/model_146/tf.math.add_495/Add", "op": "_FusedConv2D", "input": ["PartitionedCall/model_146/tf.math.multiply_1533/Mul", "107316", "107318"], "device": "/device:CPU:0", "attr": {"padding": {"s": "U0FNRQ=="}, "TArgs": {"list": {"type": ["DT_FLOAT"]}}, "leakyrelu_alpha": {"f": 0.2}, "num_host_args": {"i": "0"}, "dilations": {"list": {"i": ["1", "1", "1", "1"]}}, "T": {"type": "DT_FLOAT"}, "use_cudnn_on_gpu": {"b": true}, "explicit_paddings": {"list": {}}, "num_args": {"i": "1"}, "strides": {"list": {"i": ["1", "1", "1", "1"]}}, "epsilon": {"f": 0.0}, "data_format": {"s": "TkhXQw=="}, "fused_ops": {"list": {"s": ["Qmlhc0FkZA=="]}}, "filter_format": {"s": "SFdJTw=="}}}, {"name": "PartitionedCall/model_146/tf.math.sigmoid_352/Sigmoid", "op": "Sigmoid", "input": ["PartitionedCall/model_146/tf.math.add_495/Add"], "attr": {"T": {"type": "DT_FLOAT"}}}, {"name": "PartitionedCall/model_146/tf.math.multiply_1537/Mul", "op": "Mul", "input": ["PartitionedCall/model_146/tf.math.add_495/Add", "PartitionedCall/model_146/tf.math.sigmoid_352/Sigmoid"], "attr": {"T": {"type": "DT_FLOAT"}}}, {"name": "PartitionedCall/model_146/tf.math.add_497/Add", "op": "AddV2", "input": ["PartitionedCall/model_146/tf.math.add_493/Add", "PartitionedCall/model_146/tf.math.multiply_1537/Mul"], "attr": {"T": {"type": "DT_FLOAT"}}}, {"name": "PartitionedCall/model_146/tf.concat_128/concat", "op": "ConcatV2", "input": ["PartitionedCall/model_146/tf.strided_slice_112/StridedSlice", "PartitionedCall/model_146/tf.strided_slice_113/StridedSlice", "PartitionedCall/model_146/tf.math.add_493/Add", "PartitionedCall/model_146/tf.math.add_497/Add", "PartitionedCall/model_146/tf.concat_128/concat/axis"], "attr": {"Tidx": {"type": "DT_INT32"}, "T": {"type": "DT_FLOAT"}, "N": {"i": "4"}}}, {"name": "PartitionedCall/model_146/tf.math.add_498/Add", "op": "_FusedConv2D", "input": ["PartitionedCall/model_146/tf.concat_128/concat", "107324", "107326"], "device": "/device:CPU:0", "attr": {"strides": {"list": {"i": ["1", "1", "1", "1"]}}, "T": {"type": "DT_FLOAT"}, "use_cudnn_on_gpu": {"b": true}, "filter_format": {"s": "SFdJTw=="}, "num_args": {"i": "1"}, "padding": {"s": "U0FNRQ=="}, "num_host_args": {"i": "0"}, "fused_ops": {"list": {"s": ["Qmlhc0FkZA=="]}}, "epsilon": {"f": 0.0}, "explicit_paddings": {"list": {}}, "TArgs": {"list": {"type": ["DT_FLOAT"]}}, "dilations": {"list": {"i": ["1", "1", "1", "1"]}}, "leakyrelu_alpha": {"f": 0.2}, "data_format": {"s": "TkhXQw=="}}}, {"name": "PartitionedCall/model_146/tf.math.sigmoid_353/Sigmoid", "op": "Sigmoid", "input": ["PartitionedCall/model_146/tf.math.add_498/Add"], "attr": {"T": {"type": "DT_FLOAT"}}}, {"name": "PartitionedCall/model_146/tf.math.multiply_1543/Mul", "op": "Mul", "input": ["PartitionedCall/model_146/tf.math.add_498/Add", "PartitionedCall/model_146/tf.math.sigmoid_353/Sigmoid"], "attr": {"T": {"type": "DT_FLOAT"}}}, {"name": "PartitionedCall/model_146/tf.compat.v1.pad_44/Pad", "op": "Pad", "input": ["PartitionedCall/model_146/tf.math.multiply_1543/Mul", "107328"], "attr": {"Tpaddings": {"type": "DT_INT32"}, "T": {"type": "DT_FLOAT"}}}, {"name": "PartitionedCall/model_146/tf.math.add_499/Add", "op": "_FusedConv2D", "input": ["PartitionedCall/model_146/tf.compat.v1.pad_44/Pad", "107330", "107332"], "device": "/device:CPU:0", "attr": {"use_cudnn_on_gpu": {"b": true}, "strides": {"list": {"i": ["1", "2", "2", "1"]}}, "TArgs": {"list": {"type": ["DT_FLOAT"]}}, "epsilon": {"f": 0.0}, "explicit_paddings": {"list": {}}, "num_args": {"i": "1"}, "num_host_args": {"i": "0"}, "padding": {"s": "VkFMSUQ="}, "dilations": {"list": {"i": ["1", "1", "1", "1"]}}, "leakyrelu_alpha": {"f": 0.2}, "data_format": {"s": "TkhXQw=="}, "T": {"type": "DT_FLOAT"}, "fused_ops": {"list": {"s": ["Qmlhc0FkZA=="]}}, "filter_format": {"s": "SFdJTw=="}}}, {"name": "PartitionedCall/model_146/tf.math.sigmoid_354/Sigmoid", "op": "Sigmoid", "input": ["PartitionedCall/model_146/tf.math.add_499/Add"], "attr": {"T": {"type": "DT_FLOAT"}}}, {"name": "PartitionedCall/model_146/tf.math.multiply_1547/Mul", "op": "Mul", "input": ["PartitionedCall/model_146/tf.math.add_499/Add", "PartitionedCall/model_146/tf.math.sigmoid_354/Sigmoid"], "attr": {"T": {"type": "DT_FLOAT"}}}, {"name": "PartitionedCall/model_146/tf.math.add_500/Add", "op": "_FusedConv2D", "input": ["PartitionedCall/model_146/tf.math.multiply_1547/Mul", "107334", "107336"], "device": "/device:CPU:0", "attr": {"explicit_paddings": {"list": {}}, "data_format": {"s": "TkhXQw=="}, "filter_format": {"s": "SFdJTw=="}, "strides": {"list": {"i": ["1", "1", "1", "1"]}}, "dilations": {"list": {"i": ["1", "1", "1", "1"]}}, "fused_ops": {"list": {"s": ["Qmlhc0FkZA=="]}}, "epsilon": {"f": 0.0}, "padding": {"s": "U0FNRQ=="}, "use_cudnn_on_gpu": {"b": true}, "TArgs": {"list": {"type": ["DT_FLOAT"]}}, "leakyrelu_alpha": {"f": 0.2}, "T": {"type": "DT_FLOAT"}, "num_host_args": {"i": "0"}, "num_args": {"i": "1"}}}, {"name": "PartitionedCall/model_146/tf.math.sigmoid_355/Sigmoid", "op": "Sigmoid", "input": ["PartitionedCall/model_146/tf.math.add_500/Add"], "attr": {"T": {"type": "DT_FLOAT"}}}, {"name": "PartitionedCall/model_146/tf.math.multiply_1551/Mul", "op": "Mul", "input": ["PartitionedCall/model_146/tf.math.add_500/Add", "PartitionedCall/model_146/tf.math.sigmoid_355/Sigmoid"], "attr": {"T": {"type": "DT_FLOAT"}}}, {"name": "PartitionedCall/model_146/tf.strided_slice_114/StridedSlice", "op": "StridedSlice", "input": ["PartitionedCall/model_146/tf.math.multiply_1551/Mul", "107350", "107352", "PartitionedCall/model_146/tf.strided_slice_114/ones_like"], "attr": {"end_mask": {"i": "7"}, "Index": {"type": "DT_INT64"}, "ellipsis_mask": {"i": "0"}, "T": {"type": "DT_FLOAT"}, "shrink_axis_mask": {"i": "0"}, "begin_mask": {"i": "15"}, "new_axis_mask": {"i": "0"}}}, {"name": "PartitionedCall/model_146/tf.strided_slice_115/StridedSlice", "op": "StridedSlice", "input": ["PartitionedCall/model_146/tf.math.multiply_1551/Mul", "107338", "107340", "PartitionedCall/model_146/tf.strided_slice_115/ones_like"], "attr": {"new_axis_mask": {"i": "0"}, "T": {"type": "DT_FLOAT"}, "shrink_axis_mask": {"i": "0"}, "begin_mask": {"i": "7"}, "ellipsis_mask": {"i": "0"}, "end_mask": {"i": "7"}, "Index": {"type": "DT_INT64"}}}, {"name": "PartitionedCall/model_146/tf.math.add_501/Add", "op": "_FusedConv2D", "input": ["PartitionedCall/model_146/tf.strided_slice_115/StridedSlice", "107342", "107344"], "device": "/device:CPU:0", "attr": {"filter_format": {"s": "SFdJTw=="}, "num_host_args": {"i": "0"}, "fused_ops": {"list": {"s": ["Qmlhc0FkZA=="]}}, "padding": {"s": "U0FNRQ=="}, "strides": {"list": {"i": ["1", "1", "1", "1"]}}, "explicit_paddings": {"list": {}}, "epsilon": {"f": 0.0}, "use_cudnn_on_gpu": {"b": true}, "data_format": {"s": "TkhXQw=="}, "T": {"type": "DT_FLOAT"}, "TArgs": {"list": {"type": ["DT_FLOAT"]}}, "num_args": {"i": "1"}, "leakyrelu_alpha": {"f": 0.2}, "dilations": {"list": {"i": ["1", "1", "1", "1"]}}}}, {"name": "PartitionedCall/model_146/tf.math.sigmoid_356/Sigmoid", "op": "Sigmoid", "input": ["PartitionedCall/model_146/tf.math.add_501/Add"], "attr": {"T": {"type": "DT_FLOAT"}}}, {"name": "PartitionedCall/model_146/tf.math.multiply_1555/Mul", "op": "Mul", "input": ["PartitionedCall/model_146/tf.math.add_501/Add", "PartitionedCall/model_146/tf.math.sigmoid_356/Sigmoid"], "attr": {"T": {"type": "DT_FLOAT"}}}, {"name": "PartitionedCall/model_146/tf.math.add_502/Add", "op": "_FusedConv2D", "input": ["PartitionedCall/model_146/tf.math.multiply_1555/Mul", "107346", "107348"], "device": "/device:CPU:0", "attr": {"fused_ops": {"list": {"s": ["Qmlhc0FkZA=="]}}, "dilations": {"list": {"i": ["1", "1", "1", "1"]}}, "padding": {"s": "U0FNRQ=="}, "leakyrelu_alpha": {"f": 0.2}, "strides": {"list": {"i": ["1", "1", "1", "1"]}}, "num_args": {"i": "1"}, "data_format": {"s": "TkhXQw=="}, "epsilon": {"f": 0.0}, "use_cudnn_on_gpu": {"b": true}, "filter_format": {"s": "SFdJTw=="}, "TArgs": {"list": {"type": ["DT_FLOAT"]}}, "T": {"type": "DT_FLOAT"}, "explicit_paddings": {"list": {}}, "num_host_args": {"i": "0"}}}, {"name": "PartitionedCall/model_146/tf.math.sigmoid_357/Sigmoid", "op": "Sigmoid", "input": ["PartitionedCall/model_146/tf.math.add_502/Add"], "attr": {"T": {"type": "DT_FLOAT"}}}, {"name": "PartitionedCall/model_146/tf.math.multiply_1559/Mul", "op": "Mul", "input": ["PartitionedCall/model_146/tf.math.add_502/Add", "PartitionedCall/model_146/tf.math.sigmoid_357/Sigmoid"], "attr": {"T": {"type": "DT_FLOAT"}}}, {"name": "PartitionedCall/model_146/tf.math.add_504/Add", "op": "AddV2", "input": ["PartitionedCall/model_146/tf.strided_slice_115/StridedSlice", "PartitionedCall/model_146/tf.math.multiply_1559/Mul"], "attr": {"T": {"type": "DT_FLOAT"}}}, {"name": "PartitionedCall/model_146/tf.concat_129/concat", "op": "ConcatV2", "input": ["PartitionedCall/model_146/tf.strided_slice_114/StridedSlice", "PartitionedCall/model_146/tf.strided_slice_115/StridedSlice", "PartitionedCall/model_146/tf.math.add_504/Add", "PartitionedCall/model_146/tf.concat_129/concat/axis"], "attr": {"Tidx": {"type": "DT_INT32"}, "N": {"i": "3"}, "T": {"type": "DT_FLOAT"}}}, {"name": "PartitionedCall/model_146/tf.math.add_505/Add", "op": "_FusedConv2D", "input": ["PartitionedCall/model_146/tf.concat_129/concat", "107354", "107356"], "device": "/device:CPU:0", "attr": {"dilations": {"list": {"i": ["1", "1", "1", "1"]}}, "num_args": {"i": "1"}, "use_cudnn_on_gpu": {"b": true}, "filter_format": {"s": "SFdJTw=="}, "padding": {"s": "U0FNRQ=="}, "TArgs": {"list": {"type": ["DT_FLOAT"]}}, "num_host_args": {"i": "0"}, "fused_ops": {"list": {"s": ["Qmlhc0FkZA=="]}}, "strides": {"list": {"i": ["1", "1", "1", "1"]}}, "explicit_paddings": {"list": {}}, "leakyrelu_alpha": {"f": 0.2}, "epsilon": {"f": 0.0}, "data_format": {"s": "TkhXQw=="}, "T": {"type": "DT_FLOAT"}}}, {"name": "PartitionedCall/model_146/tf.math.sigmoid_358/Sigmoid", "op": "Sigmoid", "input": ["PartitionedCall/model_146/tf.math.add_505/Add"], "attr": {"T": {"type": "DT_FLOAT"}}}, {"name": "PartitionedCall/model_146/tf.math.multiply_1565/Mul", "op": "Mul", "input": ["PartitionedCall/model_146/tf.math.add_505/Add", "PartitionedCall/model_146/tf.math.sigmoid_358/Sigmoid"], "attr": {"T": {"type": "DT_FLOAT"}}}, {"name": "PartitionedCall/model_146/tf.math.add_506/Add", "op": "_FusedConv2D", "input": ["PartitionedCall/model_146/tf.math.multiply_1565/Mul", "107358", "107360"], "device": "/device:CPU:0", "attr": {"num_args": {"i": "1"}, "data_format": {"s": "TkhXQw=="}, "strides": {"list": {"i": ["1", "1", "1", "1"]}}, "TArgs": {"list": {"type": ["DT_FLOAT"]}}, "use_cudnn_on_gpu": {"b": true}, "num_host_args": {"i": "0"}, "leakyrelu_alpha": {"f": 0.2}, "padding": {"s": "U0FNRQ=="}, "filter_format": {"s": "SFdJTw=="}, "T": {"type": "DT_FLOAT"}, "dilations": {"list": {"i": ["1", "1", "1", "1"]}}, "explicit_paddings": {"list": {}}, "fused_ops": {"list": {"s": ["Qmlhc0FkZA=="]}}, "epsilon": {"f": 0.0}}}, {"name": "PartitionedCall/model_146/tf.math.sigmoid_359/Sigmoid", "op": "Sigmoid", "input": ["PartitionedCall/model_146/tf.math.add_506/Add"], "attr": {"T": {"type": "DT_FLOAT"}}}, {"name": "PartitionedCall/model_146/tf.math.multiply_1569/Mul", "op": "Mul", "input": ["PartitionedCall/model_146/tf.math.add_506/Add", "PartitionedCall/model_146/tf.math.sigmoid_359/Sigmoid"], "attr": {"T": {"type": "DT_FLOAT"}}}, {"name": "PartitionedCall/model_146/tf.compat.v1.nn.pool_15/max_pool", "op": "MaxPool", "input": ["PartitionedCall/model_146/tf.math.multiply_1569/Mul"], "attr": {"strides": {"list": {"i": ["1", "1", "1", "1"]}}, "ksize": {"list": {"i": ["1", "5", "5", "1"]}}, "explicit_paddings": {"list": {}}, "data_format": {"s": "TkhXQw=="}, "padding": {"s": "U0FNRQ=="}, "T": {"type": "DT_FLOAT"}}}, {"name": "PartitionedCall/model_146/tf.compat.v1.nn.pool_16/max_pool", "op": "MaxPool", "input": ["PartitionedCall/model_146/tf.compat.v1.nn.pool_15/max_pool"], "attr": {"explicit_paddings": {"list": {}}, "strides": {"list": {"i": ["1", "1", "1", "1"]}}, "padding": {"s": "U0FNRQ=="}, "ksize": {"list": {"i": ["1", "5", "5", "1"]}}, "data_format": {"s": "TkhXQw=="}, "T": {"type": "DT_FLOAT"}}}, {"name": "PartitionedCall/model_146/tf.compat.v1.nn.pool_17/max_pool", "op": "MaxPool", "input": ["PartitionedCall/model_146/tf.compat.v1.nn.pool_16/max_pool"], "attr": {"ksize": {"list": {"i": ["1", "5", "5", "1"]}}, "strides": {"list": {"i": ["1", "1", "1", "1"]}}, "data_format": {"s": "TkhXQw=="}, "padding": {"s": "U0FNRQ=="}, "explicit_paddings": {"list": {}}, "T": {"type": "DT_FLOAT"}}}, {"name": "PartitionedCall/model_146/tf.concat_130/concat", "op": "ConcatV2", "input": ["PartitionedCall/model_146/tf.math.multiply_1569/Mul", "PartitionedCall/model_146/tf.compat.v1.nn.pool_15/max_pool", "PartitionedCall/model_146/tf.compat.v1.nn.pool_16/max_pool", "PartitionedCall/model_146/tf.compat.v1.nn.pool_17/max_pool", "PartitionedCall/model_146/tf.concat_130/concat/axis"], "attr": {"N": {"i": "4"}, "T": {"type": "DT_FLOAT"}, "Tidx": {"type": "DT_INT32"}}}, {"name": "PartitionedCall/model_146/tf.math.add_507/Add", "op": "_FusedConv2D", "input": ["PartitionedCall/model_146/tf.concat_130/concat", "107362", "107364"], "device": "/device:CPU:0", "attr": {"num_args": {"i": "1"}, "use_cudnn_on_gpu": {"b": true}, "data_format": {"s": "TkhXQw=="}, "leakyrelu_alpha": {"f": 0.2}, "fused_ops": {"list": {"s": ["Qmlhc0FkZA=="]}}, "TArgs": {"list": {"type": ["DT_FLOAT"]}}, "epsilon": {"f": 0.0}, "num_host_args": {"i": "0"}, "strides": {"list": {"i": ["1", "1", "1", "1"]}}, "explicit_paddings": {"list": {}}, "filter_format": {"s": "SFdJTw=="}, "T": {"type": "DT_FLOAT"}, "dilations": {"list": {"i": ["1", "1", "1", "1"]}}, "padding": {"s": "U0FNRQ=="}}}, {"name": "PartitionedCall/model_146/tf.math.sigmoid_360/Sigmoid", "op": "Sigmoid", "input": ["PartitionedCall/model_146/tf.math.add_507/Add"], "attr": {"T": {"type": "DT_FLOAT"}}}, {"name": "PartitionedCall/model_146/tf.math.multiply_1573/Mul", "op": "Mul", "input": ["PartitionedCall/model_146/tf.math.add_507/Add", "PartitionedCall/model_146/tf.math.sigmoid_360/Sigmoid"], "attr": {"T": {"type": "DT_FLOAT"}}}, {"name": "PartitionedCall/model_146/tf.compat.v1.image.resize_nearest_neighbor_10/ResizeNearestNeighbor", "op": "ResizeNearestNeighbor", "input": ["PartitionedCall/model_146/tf.math.multiply_1573/Mul", "PartitionedCall/model_146/tf.compat.v1.image.resize_nearest_neighbor_10/ResizeNearestNeighbor/size"], "attr": {"T": {"type": "DT_FLOAT"}, "align_corners": {"b": false}, "half_pixel_centers": {"b": false}}}, {"name": "PartitionedCall/model_146/tf.concat_131/concat", "op": "ConcatV2", "input": ["PartitionedCall/model_146/tf.compat.v1.image.resize_nearest_neighbor_10/ResizeNearestNeighbor", "PartitionedCall/model_146/tf.math.multiply_1543/Mul", "PartitionedCall/model_146/tf.concat_131/concat/axis"], "attr": {"Tidx": {"type": "DT_INT32"}, "T": {"type": "DT_FLOAT"}, "N": {"i": "2"}}}, {"name": "PartitionedCall/model_146/tf.math.add_508/Add", "op": "_FusedConv2D", "input": ["PartitionedCall/model_146/tf.concat_131/concat", "107366", "107368"], "device": "/device:CPU:0", "attr": {"T": {"type": "DT_FLOAT"}, "leakyrelu_alpha": {"f": 0.2}, "padding": {"s": "U0FNRQ=="}, "use_cudnn_on_gpu": {"b": true}, "epsilon": {"f": 0.0}, "num_args": {"i": "1"}, "fused_ops": {"list": {"s": ["Qmlhc0FkZA=="]}}, "filter_format": {"s": "SFdJTw=="}, "explicit_paddings": {"list": {}}, "dilations": {"list": {"i": ["1", "1", "1", "1"]}}, "data_format": {"s": "TkhXQw=="}, "strides": {"list": {"i": ["1", "1", "1", "1"]}}, "num_host_args": {"i": "0"}, "TArgs": {"list": {"type": ["DT_FLOAT"]}}}}, {"name": "PartitionedCall/model_146/tf.math.sigmoid_361/Sigmoid", "op": "Sigmoid", "input": ["PartitionedCall/model_146/tf.math.add_508/Add"], "attr": {"T": {"type": "DT_FLOAT"}}}, {"name": "PartitionedCall/model_146/tf.math.multiply_1577/Mul", "op": "Mul", "input": ["PartitionedCall/model_146/tf.math.add_508/Add", "PartitionedCall/model_146/tf.math.sigmoid_361/Sigmoid"], "attr": {"T": {"type": "DT_FLOAT"}}}, {"name": "PartitionedCall/model_146/tf.strided_slice_116/StridedSlice", "op": "StridedSlice", "input": ["PartitionedCall/model_146/tf.math.multiply_1577/Mul", "107382", "107384", "PartitionedCall/model_146/tf.strided_slice_116/ones_like"], "attr": {"begin_mask": {"i": "15"}, "shrink_axis_mask": {"i": "0"}, "end_mask": {"i": "7"}, "T": {"type": "DT_FLOAT"}, "new_axis_mask": {"i": "0"}, "Index": {"type": "DT_INT64"}, "ellipsis_mask": {"i": "0"}}}, {"name": "PartitionedCall/model_146/tf.strided_slice_117/StridedSlice", "op": "StridedSlice", "input": ["PartitionedCall/model_146/tf.math.multiply_1577/Mul", "107370", "107372", "PartitionedCall/model_146/tf.strided_slice_117/ones_like"], "attr": {"begin_mask": {"i": "7"}, "ellipsis_mask": {"i": "0"}, "T": {"type": "DT_FLOAT"}, "new_axis_mask": {"i": "0"}, "Index": {"type": "DT_INT64"}, "end_mask": {"i": "7"}, "shrink_axis_mask": {"i": "0"}}}, {"name": "PartitionedCall/model_146/tf.math.add_509/Add", "op": "_FusedConv2D", "input": ["PartitionedCall/model_146/tf.strided_slice_117/StridedSlice", "107374", "107376"], "device": "/device:CPU:0", "attr": {"filter_format": {"s": "SFdJTw=="}, "explicit_paddings": {"list": {}}, "num_args": {"i": "1"}, "dilations": {"list": {"i": ["1", "1", "1", "1"]}}, "leakyrelu_alpha": {"f": 0.2}, "strides": {"list": {"i": ["1", "1", "1", "1"]}}, "num_host_args": {"i": "0"}, "data_format": {"s": "TkhXQw=="}, "epsilon": {"f": 0.0}, "fused_ops": {"list": {"s": ["Qmlhc0FkZA=="]}}, "padding": {"s": "U0FNRQ=="}, "T": {"type": "DT_FLOAT"}, "TArgs": {"list": {"type": ["DT_FLOAT"]}}, "use_cudnn_on_gpu": {"b": true}}}, {"name": "PartitionedCall/model_146/tf.math.sigmoid_362/Sigmoid", "op": "Sigmoid", "input": ["PartitionedCall/model_146/tf.math.add_509/Add"], "attr": {"T": {"type": "DT_FLOAT"}}}, {"name": "PartitionedCall/model_146/tf.math.multiply_1581/Mul", "op": "Mul", "input": ["PartitionedCall/model_146/tf.math.add_509/Add", "PartitionedCall/model_146/tf.math.sigmoid_362/Sigmoid"], "attr": {"T": {"type": "DT_FLOAT"}}}, {"name": "PartitionedCall/model_146/tf.math.add_510/Add", "op": "_FusedConv2D", "input": ["PartitionedCall/model_146/tf.math.multiply_1581/Mul", "107378", "107380"], "device": "/device:CPU:0", "attr": {"T": {"type": "DT_FLOAT"}, "strides": {"list": {"i": ["1", "1", "1", "1"]}}, "data_format": {"s": "TkhXQw=="}, "explicit_paddings": {"list": {}}, "use_cudnn_on_gpu": {"b": true}, "epsilon": {"f": 0.0}, "fused_ops": {"list": {"s": ["Qmlhc0FkZA=="]}}, "dilations": {"list": {"i": ["1", "1", "1", "1"]}}, "leakyrelu_alpha": {"f": 0.2}, "num_args": {"i": "1"}, "filter_format": {"s": "SFdJTw=="}, "padding": {"s": "U0FNRQ=="}, "TArgs": {"list": {"type": ["DT_FLOAT"]}}, "num_host_args": {"i": "0"}}}, {"name": "PartitionedCall/model_146/tf.math.sigmoid_363/Sigmoid", "op": "Sigmoid", "input": ["PartitionedCall/model_146/tf.math.add_510/Add"], "attr": {"T": {"type": "DT_FLOAT"}}}, {"name": "PartitionedCall/model_146/tf.math.multiply_1585/Mul", "op": "Mul", "input": ["PartitionedCall/model_146/tf.math.add_510/Add", "PartitionedCall/model_146/tf.math.sigmoid_363/Sigmoid"], "attr": {"T": {"type": "DT_FLOAT"}}}, {"name": "PartitionedCall/model_146/tf.concat_132/concat", "op": "ConcatV2", "input": ["PartitionedCall/model_146/tf.strided_slice_116/StridedSlice", "PartitionedCall/model_146/tf.strided_slice_117/StridedSlice", "PartitionedCall/model_146/tf.math.multiply_1585/Mul", "PartitionedCall/model_146/tf.concat_132/concat/axis"], "attr": {"T": {"type": "DT_FLOAT"}, "Tidx": {"type": "DT_INT32"}, "N": {"i": "3"}}}, {"name": "PartitionedCall/model_146/tf.math.add_511/Add", "op": "_FusedConv2D", "input": ["PartitionedCall/model_146/tf.concat_132/concat", "107386", "107388"], "device": "/device:CPU:0", "attr": {"padding": {"s": "U0FNRQ=="}, "dilations": {"list": {"i": ["1", "1", "1", "1"]}}, "fused_ops": {"list": {"s": ["Qmlhc0FkZA=="]}}, "explicit_paddings": {"list": {}}, "TArgs": {"list": {"type": ["DT_FLOAT"]}}, "epsilon": {"f": 0.0}, "use_cudnn_on_gpu": {"b": true}, "filter_format": {"s": "SFdJTw=="}, "num_args": {"i": "1"}, "data_format": {"s": "TkhXQw=="}, "T": {"type": "DT_FLOAT"}, "num_host_args": {"i": "0"}, "strides": {"list": {"i": ["1", "1", "1", "1"]}}, "leakyrelu_alpha": {"f": 0.2}}}, {"name": "PartitionedCall/model_146/tf.math.sigmoid_364/Sigmoid", "op": "Sigmoid", "input": ["PartitionedCall/model_146/tf.math.add_511/Add"], "attr": {"T": {"type": "DT_FLOAT"}}}, {"name": "PartitionedCall/model_146/tf.math.multiply_1589/Mul", "op": "Mul", "input": ["PartitionedCall/model_146/tf.math.add_511/Add", "PartitionedCall/model_146/tf.math.sigmoid_364/Sigmoid"], "attr": {"T": {"type": "DT_FLOAT"}}}, {"name": "PartitionedCall/model_146/tf.compat.v1.image.resize_nearest_neighbor_11/ResizeNearestNeighbor", "op": "ResizeNearestNeighbor", "input": ["PartitionedCall/model_146/tf.math.multiply_1589/Mul", "PartitionedCall/model_146/tf.compat.v1.image.resize_nearest_neighbor_11/ResizeNearestNeighbor/size"], "attr": {"T": {"type": "DT_FLOAT"}, "align_corners": {"b": false}, "half_pixel_centers": {"b": false}}}, {"name": "PartitionedCall/model_146/tf.concat_133/concat", "op": "ConcatV2", "input": ["PartitionedCall/model_146/tf.compat.v1.image.resize_nearest_neighbor_11/ResizeNearestNeighbor", "PartitionedCall/model_146/tf.math.multiply_1511/Mul", "PartitionedCall/model_146/tf.concat_133/concat/axis"], "attr": {"N": {"i": "2"}, "T": {"type": "DT_FLOAT"}, "Tidx": {"type": "DT_INT32"}}}, {"name": "PartitionedCall/model_146/tf.math.add_512/Add", "op": "_FusedConv2D", "input": ["PartitionedCall/model_146/tf.concat_133/concat", "107390", "107392"], "device": "/device:CPU:0", "attr": {"use_cudnn_on_gpu": {"b": true}, "strides": {"list": {"i": ["1", "1", "1", "1"]}}, "explicit_paddings": {"list": {}}, "padding": {"s": "U0FNRQ=="}, "TArgs": {"list": {"type": ["DT_FLOAT"]}}, "num_host_args": {"i": "0"}, "epsilon": {"f": 0.0}, "filter_format": {"s": "SFdJTw=="}, "fused_ops": {"list": {"s": ["Qmlhc0FkZA=="]}}, "num_args": {"i": "1"}, "data_format": {"s": "TkhXQw=="}, "T": {"type": "DT_FLOAT"}, "dilations": {"list": {"i": ["1", "1", "1", "1"]}}, "leakyrelu_alpha": {"f": 0.2}}}, {"name": "PartitionedCall/model_146/tf.math.sigmoid_365/Sigmoid", "op": "Sigmoid", "input": ["PartitionedCall/model_146/tf.math.add_512/Add"], "attr": {"T": {"type": "DT_FLOAT"}}}, {"name": "PartitionedCall/model_146/tf.math.multiply_1593/Mul", "op": "Mul", "input": ["PartitionedCall/model_146/tf.math.add_512/Add", "PartitionedCall/model_146/tf.math.sigmoid_365/Sigmoid"], "attr": {"T": {"type": "DT_FLOAT"}}}, {"name": "PartitionedCall/model_146/tf.strided_slice_118/StridedSlice", "op": "StridedSlice", "input": ["PartitionedCall/model_146/tf.math.multiply_1593/Mul", "107406", "107408", "PartitionedCall/model_146/tf.strided_slice_118/ones_like"], "attr": {"shrink_axis_mask": {"i": "0"}, "new_axis_mask": {"i": "0"}, "begin_mask": {"i": "15"}, "T": {"type": "DT_FLOAT"}, "end_mask": {"i": "7"}, "Index": {"type": "DT_INT64"}, "ellipsis_mask": {"i": "0"}}}, {"name": "PartitionedCall/model_146/tf.strided_slice_119/StridedSlice", "op": "StridedSlice", "input": ["PartitionedCall/model_146/tf.math.multiply_1593/Mul", "107394", "107396", "PartitionedCall/model_146/tf.strided_slice_119/ones_like"], "attr": {"end_mask": {"i": "7"}, "begin_mask": {"i": "7"}, "shrink_axis_mask": {"i": "0"}, "T": {"type": "DT_FLOAT"}, "ellipsis_mask": {"i": "0"}, "new_axis_mask": {"i": "0"}, "Index": {"type": "DT_INT64"}}}, {"name": "PartitionedCall/model_146/tf.math.add_513/Add", "op": "_FusedConv2D", "input": ["PartitionedCall/model_146/tf.strided_slice_119/StridedSlice", "107398", "107400"], "device": "/device:CPU:0", "attr": {"num_args": {"i": "1"}, "filter_format": {"s": "SFdJTw=="}, "num_host_args": {"i": "0"}, "explicit_paddings": {"list": {}}, "data_format": {"s": "TkhXQw=="}, "fused_ops": {"list": {"s": ["Qmlhc0FkZA=="]}}, "strides": {"list": {"i": ["1", "1", "1", "1"]}}, "dilations": {"list": {"i": ["1", "1", "1", "1"]}}, "epsilon": {"f": 0.0}, "TArgs": {"list": {"type": ["DT_FLOAT"]}}, "T": {"type": "DT_FLOAT"}, "padding": {"s": "U0FNRQ=="}, "use_cudnn_on_gpu": {"b": true}, "leakyrelu_alpha": {"f": 0.2}}}, {"name": "PartitionedCall/model_146/tf.math.sigmoid_366/Sigmoid", "op": "Sigmoid", "input": ["PartitionedCall/model_146/tf.math.add_513/Add"], "attr": {"T": {"type": "DT_FLOAT"}}}, {"name": "PartitionedCall/model_146/tf.math.multiply_1597/Mul", "op": "Mul", "input": ["PartitionedCall/model_146/tf.math.add_513/Add", "PartitionedCall/model_146/tf.math.sigmoid_366/Sigmoid"], "attr": {"T": {"type": "DT_FLOAT"}}}, {"name": "PartitionedCall/model_146/tf.math.add_514/Add", "op": "_FusedConv2D", "input": ["PartitionedCall/model_146/tf.math.multiply_1597/Mul", "107402", "107404"], "device": "/device:CPU:0", "attr": {"data_format": {"s": "TkhXQw=="}, "epsilon": {"f": 0.0}, "explicit_paddings": {"list": {}}, "strides": {"list": {"i": ["1", "1", "1", "1"]}}, "TArgs": {"list": {"type": ["DT_FLOAT"]}}, "num_host_args": {"i": "0"}, "leakyrelu_alpha": {"f": 0.2}, "dilations": {"list": {"i": ["1", "1", "1", "1"]}}, "num_args": {"i": "1"}, "padding": {"s": "U0FNRQ=="}, "use_cudnn_on_gpu": {"b": true}, "T": {"type": "DT_FLOAT"}, "fused_ops": {"list": {"s": ["Qmlhc0FkZA=="]}}, "filter_format": {"s": "SFdJTw=="}}}, {"name": "PartitionedCall/model_146/tf.math.sigmoid_367/Sigmoid", "op": "Sigmoid", "input": ["PartitionedCall/model_146/tf.math.add_514/Add"], "attr": {"T": {"type": "DT_FLOAT"}}}, {"name": "PartitionedCall/model_146/tf.math.multiply_1601/Mul", "op": "Mul", "input": ["PartitionedCall/model_146/tf.math.add_514/Add", "PartitionedCall/model_146/tf.math.sigmoid_367/Sigmoid"], "attr": {"T": {"type": "DT_FLOAT"}}}, {"name": "PartitionedCall/model_146/tf.concat_134/concat", "op": "ConcatV2", "input": ["PartitionedCall/model_146/tf.strided_slice_118/StridedSlice", "PartitionedCall/model_146/tf.strided_slice_119/StridedSlice", "PartitionedCall/model_146/tf.math.multiply_1601/Mul", "PartitionedCall/model_146/tf.concat_134/concat/axis"], "attr": {"Tidx": {"type": "DT_INT32"}, "T": {"type": "DT_FLOAT"}, "N": {"i": "3"}}}, {"name": "PartitionedCall/model_146/tf.math.add_515/Add", "op": "_FusedConv2D", "input": ["PartitionedCall/model_146/tf.concat_134/concat", "107410", "107412"], "device": "/device:CPU:0", "attr": {"padding": {"s": "U0FNRQ=="}, "strides": {"list": {"i": ["1", "1", "1", "1"]}}, "leakyrelu_alpha": {"f": 0.2}, "epsilon": {"f": 0.0}, "explicit_paddings": {"list": {}}, "num_args": {"i": "1"}, "TArgs": {"list": {"type": ["DT_FLOAT"]}}, "T": {"type": "DT_FLOAT"}, "num_host_args": {"i": "0"}, "filter_format": {"s": "SFdJTw=="}, "fused_ops": {"list": {"s": ["Qmlhc0FkZA=="]}}, "use_cudnn_on_gpu": {"b": true}, "dilations": {"list": {"i": ["1", "1", "1", "1"]}}, "data_format": {"s": "TkhXQw=="}}}, {"name": "PartitionedCall/model_146/tf.math.sigmoid_368/Sigmoid", "op": "Sigmoid", "input": ["PartitionedCall/model_146/tf.math.add_515/Add"], "attr": {"T": {"type": "DT_FLOAT"}}}, {"name": "PartitionedCall/model_146/tf.math.multiply_1605/Mul", "op": "Mul", "input": ["PartitionedCall/model_146/tf.math.add_515/Add", "PartitionedCall/model_146/tf.math.sigmoid_368/Sigmoid"], "attr": {"T": {"type": "DT_FLOAT"}}}, {"name": "PartitionedCall/model_146/tf.math.add_518/Add", "op": "_FusedConv2D", "input": ["PartitionedCall/model_146/tf.math.multiply_1605/Mul", "107484", "107496"], "device": "/device:CPU:0", "attr": {"padding": {"s": "U0FNRQ=="}, "fused_ops": {"list": {"s": ["Qmlhc0FkZA=="]}}, "epsilon": {"f": 0.0}, "num_args": {"i": "1"}, "explicit_paddings": {"list": {}}, "use_cudnn_on_gpu": {"b": true}, "filter_format": {"s": "SFdJTw=="}, "TArgs": {"list": {"type": ["DT_FLOAT"]}}, "num_host_args": {"i": "0"}, "T": {"type": "DT_FLOAT"}, "dilations": {"list": {"i": ["1", "1", "1", "1"]}}, "strides": {"list": {"i": ["1", "1", "1", "1"]}}, "leakyrelu_alpha": {"f": 0.2}, "data_format": {"s": "TkhXQw=="}}}, {"name": "PartitionedCall/model_146/tf.math.add_519/Add", "op": "_FusedConv2D", "input": ["PartitionedCall/model_146/tf.math.multiply_1605/Mul", "107482", "107494"], "device": "/device:CPU:0", "attr": {"explicit_paddings": {"list": {}}, "num_args": {"i": "1"}, "dilations": {"list": {"i": ["1", "1", "1", "1"]}}, "TArgs": {"list": {"type": ["DT_FLOAT"]}}, "epsilon": {"f": 0.0}, "num_host_args": {"i": "0"}, "use_cudnn_on_gpu": {"b": true}, "strides": {"list": {"i": ["1", "1", "1", "1"]}}, "leakyrelu_alpha": {"f": 0.2}, "filter_format": {"s": "SFdJTw=="}, "T": {"type": "DT_FLOAT"}, "padding": {"s": "U0FNRQ=="}, "data_format": {"s": "TkhXQw=="}, "fused_ops": {"list": {"s": ["Qmlhc0FkZA=="]}}}}, {"name": "PartitionedCall/model_146/tf.math.add_517/Add", "op": "_FusedConv2D", "input": ["PartitionedCall/model_146/tf.math.multiply_1605/Mul", "107550", "107556"], "device": "/device:CPU:0", "attr": {"num_host_args": {"i": "0"}, "strides": {"list": {"i": ["1", "1", "1", "1"]}}, "padding": {"s": "U0FNRQ=="}, "fused_ops": {"list": {"s": ["Qmlhc0FkZA=="]}}, "explicit_paddings": {"list": {}}, "epsilon": {"f": 0.0}, "dilations": {"list": {"i": ["1", "1", "1", "1"]}}, "num_args": {"i": "1"}, "data_format": {"s": "TkhXQw=="}, "T": {"type": "DT_FLOAT"}, "TArgs": {"list": {"type": ["DT_FLOAT"]}}, "filter_format": {"s": "SFdJTw=="}, "leakyrelu_alpha": {"f": 0.2}, "use_cudnn_on_gpu": {"b": true}}}, {"name": "PartitionedCall/model_146/tf.compat.v1.pad_45/Pad", "op": "Pad", "input": ["PartitionedCall/model_146/tf.math.multiply_1605/Mul", "107414"], "attr": {"T": {"type": "DT_FLOAT"}, "Tpaddings": {"type": "DT_INT32"}}}, {"name": "PartitionedCall/model_146/tf.math.sigmoid_371/Sigmoid", "op": "Sigmoid", "input": ["PartitionedCall/model_146/tf.math.add_518/Add"], "attr": {"T": {"type": "DT_FLOAT"}}}, {"name": "PartitionedCall/model_146/tf.math.sigmoid_372/Sigmoid", "op": "Sigmoid", "input": ["PartitionedCall/model_146/tf.math.add_519/Add"], "attr": {"T": {"type": "DT_FLOAT"}}}, {"name": "PartitionedCall/model_146/tf.math.sigmoid_370/Sigmoid", "op": "Sigmoid", "input": ["PartitionedCall/model_146/tf.math.add_517/Add"], "attr": {"T": {"type": "DT_FLOAT"}}}, {"name": "PartitionedCall/model_146/tf.math.add_516/Add", "op": "_FusedConv2D", "input": ["PartitionedCall/model_146/tf.compat.v1.pad_45/Pad", "107416", "107418"], "device": "/device:CPU:0", "attr": {"use_cudnn_on_gpu": {"b": true}, "filter_format": {"s": "SFdJTw=="}, "epsilon": {"f": 0.0}, "explicit_paddings": {"list": {}}, "dilations": {"list": {"i": ["1", "1", "1", "1"]}}, "padding": {"s": "VkFMSUQ="}, "strides": {"list": {"i": ["1", "2", "2", "1"]}}, "data_format": {"s": "TkhXQw=="}, "T": {"type": "DT_FLOAT"}, "TArgs": {"list": {"type": ["DT_FLOAT"]}}, "num_args": {"i": "1"}, "num_host_args": {"i": "0"}, "leakyrelu_alpha": {"f": 0.2}, "fused_ops": {"list": {"s": ["Qmlhc0FkZA=="]}}}}, {"name": "PartitionedCall/model_146/tf.math.multiply_1617/Mul", "op": "Mul", "input": ["PartitionedCall/model_146/tf.math.add_518/Add", "PartitionedCall/model_146/tf.math.sigmoid_371/Sigmoid"], "attr": {"T": {"type": "DT_FLOAT"}}}, {"name": "PartitionedCall/model_146/tf.math.multiply_1621/Mul", "op": "Mul", "input": ["PartitionedCall/model_146/tf.math.add_519/Add", "PartitionedCall/model_146/tf.math.sigmoid_372/Sigmoid"], "attr": {"T": {"type": "DT_FLOAT"}}}, {"name": "PartitionedCall/model_146/tf.math.multiply_1613/Mul", "op": "Mul", "input": ["PartitionedCall/model_146/tf.math.add_517/Add", "PartitionedCall/model_146/tf.math.sigmoid_370/Sigmoid"], "attr": {"T": {"type": "DT_FLOAT"}}}, {"name": "PartitionedCall/model_146/tf.math.sigmoid_369/Sigmoid", "op": "Sigmoid", "input": ["PartitionedCall/model_146/tf.math.add_516/Add"], "attr": {"T": {"type": "DT_FLOAT"}}}, {"name": "PartitionedCall/model_146/tf.math.add_521/Add", "op": "_FusedConv2D", "input": ["PartitionedCall/model_146/tf.math.multiply_1617/Mul", "107508", "107520"], "device": "/device:CPU:0", "attr": {"num_host_args": {"i": "0"}, "use_cudnn_on_gpu": {"b": true}, "leakyrelu_alpha": {"f": 0.2}, "data_format": {"s": "TkhXQw=="}, "strides": {"list": {"i": ["1", "1", "1", "1"]}}, "num_args": {"i": "1"}, "dilations": {"list": {"i": ["1", "1", "1", "1"]}}, "TArgs": {"list": {"type": ["DT_FLOAT"]}}, "explicit_paddings": {"list": {}}, "filter_format": {"s": "SFdJTw=="}, "epsilon": {"f": 0.0}, "padding": {"s": "U0FNRQ=="}, "T": {"type": "DT_FLOAT"}, "fused_ops": {"list": {"s": ["Qmlhc0FkZA=="]}}}}, {"name": "PartitionedCall/model_146/tf.math.add_522/Add", "op": "_FusedConv2D", "input": ["PartitionedCall/model_146/tf.math.multiply_1621/Mul", "107506", "107518"], "device": "/device:CPU:0", "attr": {"epsilon": {"f": 0.0}, "dilations": {"list": {"i": ["1", "1", "1", "1"]}}, "fused_ops": {"list": {"s": ["Qmlhc0FkZA=="]}}, "strides": {"list": {"i": ["1", "1", "1", "1"]}}, "T": {"type": "DT_FLOAT"}, "use_cudnn_on_gpu": {"b": true}, "num_args": {"i": "1"}, "filter_format": {"s": "SFdJTw=="}, "data_format": {"s": "TkhXQw=="}, "explicit_paddings": {"list": {}}, "TArgs": {"list": {"type": ["DT_FLOAT"]}}, "leakyrelu_alpha": {"f": 0.2}, "padding": {"s": "U0FNRQ=="}, "num_host_args": {"i": "0"}}}, {"name": "PartitionedCall/model_146/tf.math.add_520/Add", "op": "_FusedConv2D", "input": ["PartitionedCall/model_146/tf.math.multiply_1613/Mul", "107562", "107572"], "device": "/device:CPU:0", "attr": {"leakyrelu_alpha": {"f": 0.2}, "explicit_paddings": {"list": {}}, "strides": {"list": {"i": ["1", "1", "1", "1"]}}, "use_cudnn_on_gpu": {"b": true}, "num_host_args": {"i": "0"}, "epsilon": {"f": 0.0}, "num_args": {"i": "1"}, "T": {"type": "DT_FLOAT"}, "padding": {"s": "U0FNRQ=="}, "dilations": {"list": {"i": ["1", "1", "1", "1"]}}, "data_format": {"s": "TkhXQw=="}, "fused_ops": {"list": {"s": ["Qmlhc0FkZA=="]}}, "filter_format": {"s": "SFdJTw=="}, "TArgs": {"list": {"type": ["DT_FLOAT"]}}}}, {"name": "PartitionedCall/model_146/tf.math.multiply_1609/Mul", "op": "Mul", "input": ["PartitionedCall/model_146/tf.math.add_516/Add", "PartitionedCall/model_146/tf.math.sigmoid_369/Sigmoid"], "attr": {"T": {"type": "DT_FLOAT"}}}, {"name": "PartitionedCall/model_146/tf.math.sigmoid_374/Sigmoid", "op": "Sigmoid", "input": ["PartitionedCall/model_146/tf.math.add_521/Add"], "attr": {"T": {"type": "DT_FLOAT"}}}, {"name": "PartitionedCall/model_146/tf.math.sigmoid_375/Sigmoid", "op": "Sigmoid", "input": ["PartitionedCall/model_146/tf.math.add_522/Add"], "attr": {"T": {"type": "DT_FLOAT"}}}, {"name": "PartitionedCall/model_146/tf.math.sigmoid_373/Sigmoid", "op": "Sigmoid", "input": ["PartitionedCall/model_146/tf.math.add_520/Add"], "attr": {"T": {"type": "DT_FLOAT"}}}, {"name": "PartitionedCall/model_146/tf.concat_135/concat", "op": "ConcatV2", "input": ["PartitionedCall/model_146/tf.math.multiply_1609/Mul", "PartitionedCall/model_146/tf.math.multiply_1589/Mul", "PartitionedCall/model_146/tf.concat_135/concat/axis"], "attr": {"T": {"type": "DT_FLOAT"}, "N": {"i": "2"}, "Tidx": {"type": "DT_INT32"}}}, {"name": "PartitionedCall/model_146/tf.math.multiply_1629/Mul", "op": "Mul", "input": ["PartitionedCall/model_146/tf.math.add_521/Add", "PartitionedCall/model_146/tf.math.sigmoid_374/Sigmoid"], "attr": {"T": {"type": "DT_FLOAT"}}}, {"name": "PartitionedCall/model_146/tf.math.multiply_1633/Mul", "op": "Mul", "input": ["PartitionedCall/model_146/tf.math.add_522/Add", "PartitionedCall/model_146/tf.math.sigmoid_375/Sigmoid"], "attr": {"T": {"type": "DT_FLOAT"}}}, {"name": "PartitionedCall/model_146/tf.math.multiply_1625/Mul", "op": "Mul", "input": ["PartitionedCall/model_146/tf.math.add_520/Add", "PartitionedCall/model_146/tf.math.sigmoid_373/Sigmoid"], "attr": {"T": {"type": "DT_FLOAT"}}}, {"name": "PartitionedCall/model_146/tf.math.add_523/Add", "op": "_FusedConv2D", "input": ["PartitionedCall/model_146/tf.concat_135/concat", "107420", "107422"], "device": "/device:CPU:0", "attr": {"dilations": {"list": {"i": ["1", "1", "1", "1"]}}, "filter_format": {"s": "SFdJTw=="}, "data_format": {"s": "TkhXQw=="}, "TArgs": {"list": {"type": ["DT_FLOAT"]}}, "fused_ops": {"list": {"s": ["Qmlhc0FkZA=="]}}, "leakyrelu_alpha": {"f": 0.2}, "T": {"type": "DT_FLOAT"}, "explicit_paddings": {"list": {}}, "epsilon": {"f": 0.0}, "num_args": {"i": "1"}, "padding": {"s": "U0FNRQ=="}, "use_cudnn_on_gpu": {"b": true}, "strides": {"list": {"i": ["1", "1", "1", "1"]}}, "num_host_args": {"i": "0"}}}, {"name": "PartitionedCall/model_146/tf.math.add_525/Add", "op": "_FusedConv2D", "input": ["PartitionedCall/model_146/tf.math.multiply_1629/Mul", "107532", "107542"], "device": "/device:CPU:0", "attr": {"use_cudnn_on_gpu": {"b": true}, "fused_ops": {"list": {"s": ["Qmlhc0FkZA=="]}}, "num_host_args": {"i": "0"}, "padding": {"s": "U0FNRQ=="}, "epsilon": {"f": 0.0}, "leakyrelu_alpha": {"f": 0.2}, "filter_format": {"s": "SFdJTw=="}, "num_args": {"i": "1"}, "TArgs": {"list": {"type": ["DT_FLOAT"]}}, "dilations": {"list": {"i": ["1", "1", "1", "1"]}}, "data_format": {"s": "TkhXQw=="}, "T": {"type": "DT_FLOAT"}, "explicit_paddings": {"list": {}}, "strides": {"list": {"i": ["1", "1", "1", "1"]}}}}, {"name": "PartitionedCall/model_146/tf.math.add_526/Add", "op": "_FusedConv2D", "input": ["PartitionedCall/model_146/tf.math.multiply_1633/Mul", "107530", "107544"], "device": "/device:CPU:0", "attr": {"data_format": {"s": "TkhXQw=="}, "epsilon": {"f": 0.0}, "explicit_paddings": {"list": {}}, "num_args": {"i": "1"}, "padding": {"s": "U0FNRQ=="}, "fused_ops": {"list": {"s": ["Qmlhc0FkZA=="]}}, "strides": {"list": {"i": ["1", "1", "1", "1"]}}, "dilations": {"list": {"i": ["1", "1", "1", "1"]}}, "num_host_args": {"i": "0"}, "T": {"type": "DT_FLOAT"}, "leakyrelu_alpha": {"f": 0.2}, "use_cudnn_on_gpu": {"b": true}, "filter_format": {"s": "SFdJTw=="}, "TArgs": {"list": {"type": ["DT_FLOAT"]}}}}, {"name": "PartitionedCall/model_146/tf.math.add_524/Add", "op": "_FusedConv2D", "input": ["PartitionedCall/model_146/tf.math.multiply_1625/Mul", "107578", "107584"], "device": "/device:CPU:0", "attr": {"use_cudnn_on_gpu": {"b": true}, "dilations": {"list": {"i": ["1", "1", "1", "1"]}}, "num_args": {"i": "1"}, "strides": {"list": {"i": ["1", "1", "1", "1"]}}, "epsilon": {"f": 0.0}, "explicit_paddings": {"list": {}}, "num_host_args": {"i": "0"}, "filter_format": {"s": "SFdJTw=="}, "T": {"type": "DT_FLOAT"}, "leakyrelu_alpha": {"f": 0.2}, "padding": {"s": "U0FNRQ=="}, "TArgs": {"list": {"type": ["DT_FLOAT"]}}, "fused_ops": {"list": {"s": ["Qmlhc0FkZA=="]}}, "data_format": {"s": "TkhXQw=="}}}, {"name": "PartitionedCall/model_146/tf.math.sigmoid_376/Sigmoid", "op": "Sigmoid", "input": ["PartitionedCall/model_146/tf.math.add_523/Add"], "attr": {"T": {"type": "DT_FLOAT"}}}, {"name": "PartitionedCall/model_146/tf.concat_136/concat", "op": "ConcatV2", "input": ["PartitionedCall/model_146/tf.math.add_525/Add", "PartitionedCall/model_146/tf.math.add_526/Add", "PartitionedCall/model_146/tf.concat_136/concat/axis"], "attr": {"T": {"type": "DT_FLOAT"}, "Tidx": {"type": "DT_INT32"}, "N": {"i": "2"}}}, {"name": "PartitionedCall/model_146/tf.compat.v1.transpose_203/transpose", "op": "Transpose", "input": ["PartitionedCall/model_146/tf.math.add_524/Add", "PartitionedCall/model_146/tf.compat.v1.transpose_203/transpose/perm"], "attr": {"Tperm": {"type": "DT_INT32"}, "T": {"type": "DT_FLOAT"}}}, {"name": "PartitionedCall/model_146/tf.math.multiply_1637/Mul", "op": "Mul", "input": ["PartitionedCall/model_146/tf.math.add_523/Add", "PartitionedCall/model_146/tf.math.sigmoid_376/Sigmoid"], "attr": {"T": {"type": "DT_FLOAT"}}}, {"name": "PartitionedCall/model_146/tf.compat.v1.transpose_208/transpose", "op": "Transpose", "input": ["PartitionedCall/model_146/tf.concat_136/concat", "PartitionedCall/model_146/tf.compat.v1.transpose_208/transpose/perm"], "attr": {"T": {"type": "DT_FLOAT"}, "Tperm": {"type": "DT_INT32"}}}, {"name": "PartitionedCall/model_146/tf.reshape_96/Reshape", "op": "Reshape", "input": ["PartitionedCall/model_146/tf.compat.v1.transpose_203/transpose", "PartitionedCall/model_146/tf.reshape_96/Reshape/shape"], "attr": {"Tshape": {"type": "DT_INT32"}, "T": {"type": "DT_FLOAT"}}}, {"name": "PartitionedCall/model_146/tf.strided_slice_120/StridedSlice", "op": "StridedSlice", "input": ["PartitionedCall/model_146/tf.math.multiply_1637/Mul", "107436", "107438", "PartitionedCall/model_146/tf.strided_slice_120/ones_like"], "attr": {"ellipsis_mask": {"i": "0"}, "begin_mask": {"i": "15"}, "Index": {"type": "DT_INT64"}, "shrink_axis_mask": {"i": "0"}, "new_axis_mask": {"i": "0"}, "end_mask": {"i": "7"}, "T": {"type": "DT_FLOAT"}}}, {"name": "PartitionedCall/model_146/tf.strided_slice_121/StridedSlice", "op": "StridedSlice", "input": ["PartitionedCall/model_146/tf.math.multiply_1637/Mul", "107424", "107426", "PartitionedCall/model_146/tf.strided_slice_121/ones_like"], "attr": {"end_mask": {"i": "7"}, "ellipsis_mask": {"i": "0"}, "begin_mask": {"i": "7"}, "T": {"type": "DT_FLOAT"}, "new_axis_mask": {"i": "0"}, "Index": {"type": "DT_INT64"}, "shrink_axis_mask": {"i": "0"}}}, {"name": "PartitionedCall/model_146/tf.reshape_99/Reshape", "op": "Reshape", "input": ["PartitionedCall/model_146/tf.compat.v1.transpose_208/transpose", "PartitionedCall/model_146/tf.reshape_99/Reshape/shape"], "attr": {"T": {"type": "DT_FLOAT"}, "Tshape": {"type": "DT_INT32"}}}, {"name": "PartitionedCall/model_146/tf.math.add_527/Add", "op": "_FusedConv2D", "input": ["PartitionedCall/model_146/tf.strided_slice_121/StridedSlice", "107428", "107430"], "device": "/device:CPU:0", "attr": {"filter_format": {"s": "SFdJTw=="}, "fused_ops": {"list": {"s": ["Qmlhc0FkZA=="]}}, "TArgs": {"list": {"type": ["DT_FLOAT"]}}, "num_host_args": {"i": "0"}, "epsilon": {"f": 0.0}, "use_cudnn_on_gpu": {"b": true}, "strides": {"list": {"i": ["1", "1", "1", "1"]}}, "data_format": {"s": "TkhXQw=="}, "dilations": {"list": {"i": ["1", "1", "1", "1"]}}, "T": {"type": "DT_FLOAT"}, "leakyrelu_alpha": {"f": 0.2}, "padding": {"s": "U0FNRQ=="}, "num_args": {"i": "1"}, "explicit_paddings": {"list": {}}}}, {"name": "PartitionedCall/model_146/tf.math.sigmoid_377/Sigmoid", "op": "Sigmoid", "input": ["PartitionedCall/model_146/tf.math.add_527/Add"], "attr": {"T": {"type": "DT_FLOAT"}}}, {"name": "PartitionedCall/model_146/tf.math.multiply_1641/Mul", "op": "Mul", "input": ["PartitionedCall/model_146/tf.math.add_527/Add", "PartitionedCall/model_146/tf.math.sigmoid_377/Sigmoid"], "attr": {"T": {"type": "DT_FLOAT"}}}, {"name": "PartitionedCall/model_146/tf.math.add_528/Add", "op": "_FusedConv2D", "input": ["PartitionedCall/model_146/tf.math.multiply_1641/Mul", "107432", "107434"], "device": "/device:CPU:0", "attr": {"padding": {"s": "U0FNRQ=="}, "use_cudnn_on_gpu": {"b": true}, "dilations": {"list": {"i": ["1", "1", "1", "1"]}}, "epsilon": {"f": 0.0}, "leakyrelu_alpha": {"f": 0.2}, "num_args": {"i": "1"}, "strides": {"list": {"i": ["1", "1", "1", "1"]}}, "T": {"type": "DT_FLOAT"}, "fused_ops": {"list": {"s": ["Qmlhc0FkZA=="]}}, "TArgs": {"list": {"type": ["DT_FLOAT"]}}, "filter_format": {"s": "SFdJTw=="}, "data_format": {"s": "TkhXQw=="}, "num_host_args": {"i": "0"}, "explicit_paddings": {"list": {}}}}, {"name": "PartitionedCall/model_146/tf.math.sigmoid_378/Sigmoid", "op": "Sigmoid", "input": ["PartitionedCall/model_146/tf.math.add_528/Add"], "attr": {"T": {"type": "DT_FLOAT"}}}, {"name": "PartitionedCall/model_146/tf.math.multiply_1645/Mul", "op": "Mul", "input": ["PartitionedCall/model_146/tf.math.add_528/Add", "PartitionedCall/model_146/tf.math.sigmoid_378/Sigmoid"], "attr": {"T": {"type": "DT_FLOAT"}}}, {"name": "PartitionedCall/model_146/tf.concat_137/concat", "op": "ConcatV2", "input": ["PartitionedCall/model_146/tf.strided_slice_120/StridedSlice", "PartitionedCall/model_146/tf.strided_slice_121/StridedSlice", "PartitionedCall/model_146/tf.math.multiply_1645/Mul", "PartitionedCall/model_146/tf.concat_137/concat/axis"], "attr": {"T": {"type": "DT_FLOAT"}, "Tidx": {"type": "DT_INT32"}, "N": {"i": "3"}}}, {"name": "PartitionedCall/model_146/tf.math.add_529/Add", "op": "_FusedConv2D", "input": ["PartitionedCall/model_146/tf.concat_137/concat", "107440", "107442"], "device": "/device:CPU:0", "attr": {"epsilon": {"f": 0.0}, "data_format": {"s": "TkhXQw=="}, "leakyrelu_alpha": {"f": 0.2}, "num_args": {"i": "1"}, "num_host_args": {"i": "0"}, "explicit_paddings": {"list": {}}, "dilations": {"list": {"i": ["1", "1", "1", "1"]}}, "use_cudnn_on_gpu": {"b": true}, "padding": {"s": "U0FNRQ=="}, "T": {"type": "DT_FLOAT"}, "filter_format": {"s": "SFdJTw=="}, "fused_ops": {"list": {"s": ["Qmlhc0FkZA=="]}}, "strides": {"list": {"i": ["1", "1", "1", "1"]}}, "TArgs": {"list": {"type": ["DT_FLOAT"]}}}}, {"name": "PartitionedCall/model_146/tf.math.sigmoid_379/Sigmoid", "op": "Sigmoid", "input": ["PartitionedCall/model_146/tf.math.add_529/Add"], "attr": {"T": {"type": "DT_FLOAT"}}}, {"name": "PartitionedCall/model_146/tf.math.multiply_1649/Mul", "op": "Mul", "input": ["PartitionedCall/model_146/tf.math.add_529/Add", "PartitionedCall/model_146/tf.math.sigmoid_379/Sigmoid"], "attr": {"T": {"type": "DT_FLOAT"}}}, {"name": "PartitionedCall/model_146/tf.math.add_532/Add", "op": "_FusedConv2D", "input": ["PartitionedCall/model_146/tf.math.multiply_1649/Mul", "107480", "107492"], "device": "/device:CPU:0", "attr": {"num_host_args": {"i": "0"}, "strides": {"list": {"i": ["1", "1", "1", "1"]}}, "padding": {"s": "U0FNRQ=="}, "num_args": {"i": "1"}, "T": {"type": "DT_FLOAT"}, "filter_format": {"s": "SFdJTw=="}, "data_format": {"s": "TkhXQw=="}, "dilations": {"list": {"i": ["1", "1", "1", "1"]}}, "explicit_paddings": {"list": {}}, "use_cudnn_on_gpu": {"b": true}, "leakyrelu_alpha": {"f": 0.2}, "epsilon": {"f": 0.0}, "TArgs": {"list": {"type": ["DT_FLOAT"]}}, "fused_ops": {"list": {"s": ["Qmlhc0FkZA=="]}}}}, {"name": "PartitionedCall/model_146/tf.math.add_533/Add", "op": "_FusedConv2D", "input": ["PartitionedCall/model_146/tf.math.multiply_1649/Mul", "107478", "107490"], "device": "/device:CPU:0", "attr": {"padding": {"s": "U0FNRQ=="}, "data_format": {"s": "TkhXQw=="}, "dilations": {"list": {"i": ["1", "1", "1", "1"]}}, "num_args": {"i": "1"}, "num_host_args": {"i": "0"}, "TArgs": {"list": {"type": ["DT_FLOAT"]}}, "T": {"type": "DT_FLOAT"}, "strides": {"list": {"i": ["1", "1", "1", "1"]}}, "fused_ops": {"list": {"s": ["Qmlhc0FkZA=="]}}, "use_cudnn_on_gpu": {"b": true}, "leakyrelu_alpha": {"f": 0.2}, "epsilon": {"f": 0.0}, "filter_format": {"s": "SFdJTw=="}, "explicit_paddings": {"list": {}}}}, {"name": "PartitionedCall/model_146/tf.math.add_531/Add", "op": "_FusedConv2D", "input": ["PartitionedCall/model_146/tf.math.multiply_1649/Mul", "107548", "107554"], "device": "/device:CPU:0", "attr": {"T": {"type": "DT_FLOAT"}, "num_host_args": {"i": "0"}, "data_format": {"s": "TkhXQw=="}, "padding": {"s": "U0FNRQ=="}, "TArgs": {"list": {"type": ["DT_FLOAT"]}}, "strides": {"list": {"i": ["1", "1", "1", "1"]}}, "filter_format": {"s": "SFdJTw=="}, "leakyrelu_alpha": {"f": 0.2}, "use_cudnn_on_gpu": {"b": true}, "dilations": {"list": {"i": ["1", "1", "1", "1"]}}, "num_args": {"i": "1"}, "explicit_paddings": {"list": {}}, "fused_ops": {"list": {"s": ["Qmlhc0FkZA=="]}}, "epsilon": {"f": 0.0}}}, {"name": "PartitionedCall/model_146/tf.compat.v1.pad_46/Pad", "op": "Pad", "input": ["PartitionedCall/model_146/tf.math.multiply_1649/Mul", "107444"], "attr": {"T": {"type": "DT_FLOAT"}, "Tpaddings": {"type": "DT_INT32"}}}, {"name": "PartitionedCall/model_146/tf.math.sigmoid_382/Sigmoid", "op": "Sigmoid", "input": ["PartitionedCall/model_146/tf.math.add_532/Add"], "attr": {"T": {"type": "DT_FLOAT"}}}, {"name": "PartitionedCall/model_146/tf.math.sigmoid_383/Sigmoid", "op": "Sigmoid", "input": ["PartitionedCall/model_146/tf.math.add_533/Add"], "attr": {"T": {"type": "DT_FLOAT"}}}, {"name": "PartitionedCall/model_146/tf.math.sigmoid_381/Sigmoid", "op": "Sigmoid", "input": ["PartitionedCall/model_146/tf.math.add_531/Add"], "attr": {"T": {"type": "DT_FLOAT"}}}, {"name": "PartitionedCall/model_146/tf.math.add_530/Add", "op": "_FusedConv2D", "input": ["PartitionedCall/model_146/tf.compat.v1.pad_46/Pad", "107446", "107448"], "device": "/device:CPU:0", "attr": {"leakyrelu_alpha": {"f": 0.2}, "epsilon": {"f": 0.0}, "data_format": {"s": "TkhXQw=="}, "use_cudnn_on_gpu": {"b": true}, "TArgs": {"list": {"type": ["DT_FLOAT"]}}, "num_host_args": {"i": "0"}, "explicit_paddings": {"list": {}}, "num_args": {"i": "1"}, "padding": {"s": "VkFMSUQ="}, "filter_format": {"s": "SFdJTw=="}, "T": {"type": "DT_FLOAT"}, "dilations": {"list": {"i": ["1", "1", "1", "1"]}}, "fused_ops": {"list": {"s": ["Qmlhc0FkZA=="]}}, "strides": {"list": {"i": ["1", "2", "2", "1"]}}}}, {"name": "PartitionedCall/model_146/tf.math.multiply_1661/Mul", "op": "Mul", "input": ["PartitionedCall/model_146/tf.math.add_532/Add", "PartitionedCall/model_146/tf.math.sigmoid_382/Sigmoid"], "attr": {"T": {"type": "DT_FLOAT"}}}, {"name": "PartitionedCall/model_146/tf.math.multiply_1665/Mul", "op": "Mul", "input": ["PartitionedCall/model_146/tf.math.add_533/Add", "PartitionedCall/model_146/tf.math.sigmoid_383/Sigmoid"], "attr": {"T": {"type": "DT_FLOAT"}}}, {"name": "PartitionedCall/model_146/tf.math.multiply_1657/Mul", "op": "Mul", "input": ["PartitionedCall/model_146/tf.math.add_531/Add", "PartitionedCall/model_146/tf.math.sigmoid_381/Sigmoid"], "attr": {"T": {"type": "DT_FLOAT"}}}, {"name": "PartitionedCall/model_146/tf.math.sigmoid_380/Sigmoid", "op": "Sigmoid", "input": ["PartitionedCall/model_146/tf.math.add_530/Add"], "attr": {"T": {"type": "DT_FLOAT"}}}, {"name": "PartitionedCall/model_146/tf.math.add_535/Add", "op": "_FusedConv2D", "input": ["PartitionedCall/model_146/tf.math.multiply_1661/Mul", "107504", "107516"], "device": "/device:CPU:0", "attr": {"T": {"type": "DT_FLOAT"}, "data_format": {"s": "TkhXQw=="}, "strides": {"list": {"i": ["1", "1", "1", "1"]}}, "num_args": {"i": "1"}, "leakyrelu_alpha": {"f": 0.2}, "filter_format": {"s": "SFdJTw=="}, "epsilon": {"f": 0.0}, "explicit_paddings": {"list": {}}, "TArgs": {"list": {"type": ["DT_FLOAT"]}}, "num_host_args": {"i": "0"}, "dilations": {"list": {"i": ["1", "1", "1", "1"]}}, "fused_ops": {"list": {"s": ["Qmlhc0FkZA=="]}}, "padding": {"s": "U0FNRQ=="}, "use_cudnn_on_gpu": {"b": true}}}, {"name": "PartitionedCall/model_146/tf.math.add_536/Add", "op": "_FusedConv2D", "input": ["PartitionedCall/model_146/tf.math.multiply_1665/Mul", "107502", "107514"], "device": "/device:CPU:0", "attr": {"num_host_args": {"i": "0"}, "T": {"type": "DT_FLOAT"}, "filter_format": {"s": "SFdJTw=="}, "leakyrelu_alpha": {"f": 0.2}, "padding": {"s": "U0FNRQ=="}, "fused_ops": {"list": {"s": ["Qmlhc0FkZA=="]}}, "data_format": {"s": "TkhXQw=="}, "TArgs": {"list": {"type": ["DT_FLOAT"]}}, "use_cudnn_on_gpu": {"b": true}, "num_args": {"i": "1"}, "epsilon": {"f": 0.0}, "dilations": {"list": {"i": ["1", "1", "1", "1"]}}, "explicit_paddings": {"list": {}}, "strides": {"list": {"i": ["1", "1", "1", "1"]}}}}, {"name": "PartitionedCall/model_146/tf.math.add_534/Add", "op": "_FusedConv2D", "input": ["PartitionedCall/model_146/tf.math.multiply_1657/Mul", "107560", "107570"], "device": "/device:CPU:0", "attr": {"use_cudnn_on_gpu": {"b": true}, "num_args": {"i": "1"}, "fused_ops": {"list": {"s": ["Qmlhc0FkZA=="]}}, "explicit_paddings": {"list": {}}, "TArgs": {"list": {"type": ["DT_FLOAT"]}}, "filter_format": {"s": "SFdJTw=="}, "padding": {"s": "U0FNRQ=="}, "num_host_args": {"i": "0"}, "epsilon": {"f": 0.0}, "dilations": {"list": {"i": ["1", "1", "1", "1"]}}, "T": {"type": "DT_FLOAT"}, "leakyrelu_alpha": {"f": 0.2}, "data_format": {"s": "TkhXQw=="}, "strides": {"list": {"i": ["1", "1", "1", "1"]}}}}, {"name": "PartitionedCall/model_146/tf.math.multiply_1653/Mul", "op": "Mul", "input": ["PartitionedCall/model_146/tf.math.add_530/Add", "PartitionedCall/model_146/tf.math.sigmoid_380/Sigmoid"], "attr": {"T": {"type": "DT_FLOAT"}}}, {"name": "PartitionedCall/model_146/tf.math.sigmoid_385/Sigmoid", "op": "Sigmoid", "input": ["PartitionedCall/model_146/tf.math.add_535/Add"], "attr": {"T": {"type": "DT_FLOAT"}}}, {"name": "PartitionedCall/model_146/tf.math.sigmoid_386/Sigmoid", "op": "Sigmoid", "input": ["PartitionedCall/model_146/tf.math.add_536/Add"], "attr": {"T": {"type": "DT_FLOAT"}}}, {"name": "PartitionedCall/model_146/tf.math.sigmoid_384/Sigmoid", "op": "Sigmoid", "input": ["PartitionedCall/model_146/tf.math.add_534/Add"], "attr": {"T": {"type": "DT_FLOAT"}}}, {"name": "PartitionedCall/model_146/tf.concat_138/concat", "op": "ConcatV2", "input": ["PartitionedCall/model_146/tf.math.multiply_1653/Mul", "PartitionedCall/model_146/tf.math.multiply_1573/Mul", "PartitionedCall/model_146/tf.concat_138/concat/axis"], "attr": {"Tidx": {"type": "DT_INT32"}, "N": {"i": "2"}, "T": {"type": "DT_FLOAT"}}}, {"name": "PartitionedCall/model_146/tf.math.multiply_1673/Mul", "op": "Mul", "input": ["PartitionedCall/model_146/tf.math.add_535/Add", "PartitionedCall/model_146/tf.math.sigmoid_385/Sigmoid"], "attr": {"T": {"type": "DT_FLOAT"}}}, {"name": "PartitionedCall/model_146/tf.math.multiply_1677/Mul", "op": "Mul", "input": ["PartitionedCall/model_146/tf.math.add_536/Add", "PartitionedCall/model_146/tf.math.sigmoid_386/Sigmoid"], "attr": {"T": {"type": "DT_FLOAT"}}}, {"name": "PartitionedCall/model_146/tf.math.multiply_1669/Mul", "op": "Mul", "input": ["PartitionedCall/model_146/tf.math.add_534/Add", "PartitionedCall/model_146/tf.math.sigmoid_384/Sigmoid"], "attr": {"T": {"type": "DT_FLOAT"}}}, {"name": "PartitionedCall/model_146/tf.math.add_537/Add", "op": "_FusedConv2D", "input": ["PartitionedCall/model_146/tf.concat_138/concat", "107450", "107452"], "device": "/device:CPU:0", "attr": {"data_format": {"s": "TkhXQw=="}, "strides": {"list": {"i": ["1", "1", "1", "1"]}}, "leakyrelu_alpha": {"f": 0.2}, "padding": {"s": "U0FNRQ=="}, "explicit_paddings": {"list": {}}, "num_host_args": {"i": "0"}, "dilations": {"list": {"i": ["1", "1", "1", "1"]}}, "fused_ops": {"list": {"s": ["Qmlhc0FkZA=="]}}, "filter_format": {"s": "SFdJTw=="}, "num_args": {"i": "1"}, "T": {"type": "DT_FLOAT"}, "use_cudnn_on_gpu": {"b": true}, "TArgs": {"list": {"type": ["DT_FLOAT"]}}, "epsilon": {"f": 0.0}}}, {"name": "PartitionedCall/model_146/tf.math.add_539/Add", "op": "_FusedConv2D", "input": ["PartitionedCall/model_146/tf.math.multiply_1673/Mul", "107528", "107538"], "device": "/device:CPU:0", "attr": {"data_format": {"s": "TkhXQw=="}, "dilations": {"list": {"i": ["1", "1", "1", "1"]}}, "num_host_args": {"i": "0"}, "use_cudnn_on_gpu": {"b": true}, "leakyrelu_alpha": {"f": 0.2}, "TArgs": {"list": {"type": ["DT_FLOAT"]}}, "epsilon": {"f": 0.0}, "strides": {"list": {"i": ["1", "1", "1", "1"]}}, "fused_ops": {"list": {"s": ["Qmlhc0FkZA=="]}}, "padding": {"s": "U0FNRQ=="}, "num_args": {"i": "1"}, "filter_format": {"s": "SFdJTw=="}, "explicit_paddings": {"list": {}}, "T": {"type": "DT_FLOAT"}}}, {"name": "PartitionedCall/model_146/tf.math.add_540/Add", "op": "_FusedConv2D", "input": ["PartitionedCall/model_146/tf.math.multiply_1677/Mul", "107526", "107540"], "device": "/device:CPU:0", "attr": {"T": {"type": "DT_FLOAT"}, "use_cudnn_on_gpu": {"b": true}, "explicit_paddings": {"list": {}}, "num_host_args": {"i": "0"}, "padding": {"s": "U0FNRQ=="}, "dilations": {"list": {"i": ["1", "1", "1", "1"]}}, "data_format": {"s": "TkhXQw=="}, "epsilon": {"f": 0.0}, "num_args": {"i": "1"}, "TArgs": {"list": {"type": ["DT_FLOAT"]}}, "filter_format": {"s": "SFdJTw=="}, "fused_ops": {"list": {"s": ["Qmlhc0FkZA=="]}}, "leakyrelu_alpha": {"f": 0.2}, "strides": {"list": {"i": ["1", "1", "1", "1"]}}}}, {"name": "PartitionedCall/model_146/tf.math.add_538/Add", "op": "_FusedConv2D", "input": ["PartitionedCall/model_146/tf.math.multiply_1669/Mul", "107576", "107582"], "device": "/device:CPU:0", "attr": {"epsilon": {"f": 0.0}, "filter_format": {"s": "SFdJTw=="}, "T": {"type": "DT_FLOAT"}, "strides": {"list": {"i": ["1", "1", "1", "1"]}}, "dilations": {"list": {"i": ["1", "1", "1", "1"]}}, "fused_ops": {"list": {"s": ["Qmlhc0FkZA=="]}}, "num_args": {"i": "1"}, "explicit_paddings": {"list": {}}, "use_cudnn_on_gpu": {"b": true}, "data_format": {"s": "TkhXQw=="}, "leakyrelu_alpha": {"f": 0.2}, "TArgs": {"list": {"type": ["DT_FLOAT"]}}, "num_host_args": {"i": "0"}, "padding": {"s": "U0FNRQ=="}}}, {"name": "PartitionedCall/model_146/tf.math.sigmoid_387/Sigmoid", "op": "Sigmoid", "input": ["PartitionedCall/model_146/tf.math.add_537/Add"], "attr": {"T": {"type": "DT_FLOAT"}}}, {"name": "PartitionedCall/model_146/tf.concat_139/concat", "op": "ConcatV2", "input": ["PartitionedCall/model_146/tf.math.add_539/Add", "PartitionedCall/model_146/tf.math.add_540/Add", "PartitionedCall/model_146/tf.concat_139/concat/axis"], "attr": {"N": {"i": "2"}, "Tidx": {"type": "DT_INT32"}, "T": {"type": "DT_FLOAT"}}}, {"name": "PartitionedCall/model_146/tf.compat.v1.transpose_213/transpose", "op": "Transpose", "input": ["PartitionedCall/model_146/tf.math.add_538/Add", "PartitionedCall/model_146/tf.compat.v1.transpose_213/transpose/perm"], "attr": {"Tperm": {"type": "DT_INT32"}, "T": {"type": "DT_FLOAT"}}}, {"name": "PartitionedCall/model_146/tf.math.multiply_1681/Mul", "op": "Mul", "input": ["PartitionedCall/model_146/tf.math.add_537/Add", "PartitionedCall/model_146/tf.math.sigmoid_387/Sigmoid"], "attr": {"T": {"type": "DT_FLOAT"}}}, {"name": "PartitionedCall/model_146/tf.compat.v1.transpose_218/transpose", "op": "Transpose", "input": ["PartitionedCall/model_146/tf.concat_139/concat", "PartitionedCall/model_146/tf.compat.v1.transpose_218/transpose/perm"], "attr": {"T": {"type": "DT_FLOAT"}, "Tperm": {"type": "DT_INT32"}}}, {"name": "PartitionedCall/model_146/tf.reshape_102/Reshape", "op": "Reshape", "input": ["PartitionedCall/model_146/tf.compat.v1.transpose_213/transpose", "PartitionedCall/model_146/tf.reshape_102/Reshape/shape"], "attr": {"T": {"type": "DT_FLOAT"}, "Tshape": {"type": "DT_INT32"}}}, {"name": "PartitionedCall/model_146/tf.strided_slice_122/StridedSlice", "op": "StridedSlice", "input": ["PartitionedCall/model_146/tf.math.multiply_1681/Mul", "107466", "107468", "PartitionedCall/model_146/tf.strided_slice_122/ones_like"], "attr": {"begin_mask": {"i": "15"}, "new_axis_mask": {"i": "0"}, "shrink_axis_mask": {"i": "0"}, "ellipsis_mask": {"i": "0"}, "T": {"type": "DT_FLOAT"}, "end_mask": {"i": "7"}, "Index": {"type": "DT_INT64"}}}, {"name": "PartitionedCall/model_146/tf.strided_slice_123/StridedSlice", "op": "StridedSlice", "input": ["PartitionedCall/model_146/tf.math.multiply_1681/Mul", "107454", "107456", "PartitionedCall/model_146/tf.strided_slice_123/ones_like"], "attr": {"ellipsis_mask": {"i": "0"}, "Index": {"type": "DT_INT64"}, "new_axis_mask": {"i": "0"}, "T": {"type": "DT_FLOAT"}, "begin_mask": {"i": "7"}, "end_mask": {"i": "7"}, "shrink_axis_mask": {"i": "0"}}}, {"name": "PartitionedCall/model_146/tf.reshape_105/Reshape", "op": "Reshape", "input": ["PartitionedCall/model_146/tf.compat.v1.transpose_218/transpose", "PartitionedCall/model_146/tf.reshape_105/Reshape/shape"], "attr": {"Tshape": {"type": "DT_INT32"}, "T": {"type": "DT_FLOAT"}}}, {"name": "PartitionedCall/model_146/tf.math.add_541/Add", "op": "_FusedConv2D", "input": ["PartitionedCall/model_146/tf.strided_slice_123/StridedSlice", "107458", "107460"], "device": "/device:CPU:0", "attr": {"num_host_args": {"i": "0"}, "filter_format": {"s": "SFdJTw=="}, "T": {"type": "DT_FLOAT"}, "leakyrelu_alpha": {"f": 0.2}, "fused_ops": {"list": {"s": ["Qmlhc0FkZA=="]}}, "padding": {"s": "U0FNRQ=="}, "dilations": {"list": {"i": ["1", "1", "1", "1"]}}, "epsilon": {"f": 0.0}, "TArgs": {"list": {"type": ["DT_FLOAT"]}}, "num_args": {"i": "1"}, "explicit_paddings": {"list": {}}, "use_cudnn_on_gpu": {"b": true}, "strides": {"list": {"i": ["1", "1", "1", "1"]}}, "data_format": {"s": "TkhXQw=="}}}, {"name": "PartitionedCall/model_146/tf.math.sigmoid_388/Sigmoid", "op": "Sigmoid", "input": ["PartitionedCall/model_146/tf.math.add_541/Add"], "attr": {"T": {"type": "DT_FLOAT"}}}, {"name": "PartitionedCall/model_146/tf.math.multiply_1685/Mul", "op": "Mul", "input": ["PartitionedCall/model_146/tf.math.add_541/Add", "PartitionedCall/model_146/tf.math.sigmoid_388/Sigmoid"], "attr": {"T": {"type": "DT_FLOAT"}}}, {"name": "PartitionedCall/model_146/tf.math.add_542/Add", "op": "_FusedConv2D", "input": ["PartitionedCall/model_146/tf.math.multiply_1685/Mul", "107462", "107464"], "device": "/device:CPU:0", "attr": {"TArgs": {"list": {"type": ["DT_FLOAT"]}}, "explicit_paddings": {"list": {}}, "data_format": {"s": "TkhXQw=="}, "num_args": {"i": "1"}, "strides": {"list": {"i": ["1", "1", "1", "1"]}}, "filter_format": {"s": "SFdJTw=="}, "epsilon": {"f": 0.0}, "num_host_args": {"i": "0"}, "leakyrelu_alpha": {"f": 0.2}, "padding": {"s": "U0FNRQ=="}, "dilations": {"list": {"i": ["1", "1", "1", "1"]}}, "fused_ops": {"list": {"s": ["Qmlhc0FkZA=="]}}, "T": {"type": "DT_FLOAT"}, "use_cudnn_on_gpu": {"b": true}}}, {"name": "PartitionedCall/model_146/tf.math.sigmoid_389/Sigmoid", "op": "Sigmoid", "input": ["PartitionedCall/model_146/tf.math.add_542/Add"], "attr": {"T": {"type": "DT_FLOAT"}}}, {"name": "PartitionedCall/model_146/tf.math.multiply_1689/Mul", "op": "Mul", "input": ["PartitionedCall/model_146/tf.math.add_542/Add", "PartitionedCall/model_146/tf.math.sigmoid_389/Sigmoid"], "attr": {"T": {"type": "DT_FLOAT"}}}, {"name": "PartitionedCall/model_146/tf.concat_140/concat", "op": "ConcatV2", "input": ["PartitionedCall/model_146/tf.strided_slice_122/StridedSlice", "PartitionedCall/model_146/tf.strided_slice_123/StridedSlice", "PartitionedCall/model_146/tf.math.multiply_1689/Mul", "PartitionedCall/model_146/tf.concat_140/concat/axis"], "attr": {"Tidx": {"type": "DT_INT32"}, "N": {"i": "3"}, "T": {"type": "DT_FLOAT"}}}, {"name": "PartitionedCall/model_146/tf.math.add_543/Add", "op": "_FusedConv2D", "input": ["PartitionedCall/model_146/tf.concat_140/concat", "107470", "107472"], "device": "/device:CPU:0", "attr": {"TArgs": {"list": {"type": ["DT_FLOAT"]}}, "num_args": {"i": "1"}, "fused_ops": {"list": {"s": ["Qmlhc0FkZA=="]}}, "num_host_args": {"i": "0"}, "epsilon": {"f": 0.0}, "strides": {"list": {"i": ["1", "1", "1", "1"]}}, "explicit_paddings": {"list": {}}, "use_cudnn_on_gpu": {"b": true}, "dilations": {"list": {"i": ["1", "1", "1", "1"]}}, "data_format": {"s": "TkhXQw=="}, "padding": {"s": "U0FNRQ=="}, "leakyrelu_alpha": {"f": 0.2}, "filter_format": {"s": "SFdJTw=="}, "T": {"type": "DT_FLOAT"}}}, {"name": "PartitionedCall/model_146/tf.math.sigmoid_390/Sigmoid", "op": "Sigmoid", "input": ["PartitionedCall/model_146/tf.math.add_543/Add"], "attr": {"T": {"type": "DT_FLOAT"}}}, {"name": "PartitionedCall/model_146/tf.math.multiply_1693/Mul", "op": "Mul", "input": ["PartitionedCall/model_146/tf.math.add_543/Add", "PartitionedCall/model_146/tf.math.sigmoid_390/Sigmoid"], "attr": {"T": {"type": "DT_FLOAT"}}}, {"name": "PartitionedCall/model_146/tf.math.add_545/Add", "op": "_FusedConv2D", "input": ["PartitionedCall/model_146/tf.math.multiply_1693/Mul", "107476", "107488"], "device": "/device:CPU:0", "attr": {"epsilon": {"f": 0.0}, "filter_format": {"s": "SFdJTw=="}, "num_host_args": {"i": "0"}, "strides": {"list": {"i": ["1", "1", "1", "1"]}}, "num_args": {"i": "1"}, "data_format": {"s": "TkhXQw=="}, "explicit_paddings": {"list": {}}, "padding": {"s": "U0FNRQ=="}, "leakyrelu_alpha": {"f": 0.2}, "dilations": {"list": {"i": ["1", "1", "1", "1"]}}, "use_cudnn_on_gpu": {"b": true}, "TArgs": {"list": {"type": ["DT_FLOAT"]}}, "T": {"type": "DT_FLOAT"}, "fused_ops": {"list": {"s": ["Qmlhc0FkZA=="]}}}}, {"name": "PartitionedCall/model_146/tf.math.add_546/Add", "op": "_FusedConv2D", "input": ["PartitionedCall/model_146/tf.math.multiply_1693/Mul", "107474", "107486"], "device": "/device:CPU:0", "attr": {"num_host_args": {"i": "0"}, "dilations": {"list": {"i": ["1", "1", "1", "1"]}}, "leakyrelu_alpha": {"f": 0.2}, "TArgs": {"list": {"type": ["DT_FLOAT"]}}, "use_cudnn_on_gpu": {"b": true}, "explicit_paddings": {"list": {}}, "fused_ops": {"list": {"s": ["Qmlhc0FkZA=="]}}, "epsilon": {"f": 0.0}, "T": {"type": "DT_FLOAT"}, "padding": {"s": "U0FNRQ=="}, "num_args": {"i": "1"}, "data_format": {"s": "TkhXQw=="}, "strides": {"list": {"i": ["1", "1", "1", "1"]}}, "filter_format": {"s": "SFdJTw=="}}}, {"name": "PartitionedCall/model_146/tf.math.add_544/Add", "op": "_FusedConv2D", "input": ["PartitionedCall/model_146/tf.math.multiply_1693/Mul", "107546", "107552"], "device": "/device:CPU:0", "attr": {"dilations": {"list": {"i": ["1", "1", "1", "1"]}}, "num_args": {"i": "1"}, "fused_ops": {"list": {"s": ["Qmlhc0FkZA=="]}}, "epsilon": {"f": 0.0}, "TArgs": {"list": {"type": ["DT_FLOAT"]}}, "num_host_args": {"i": "0"}, "leakyrelu_alpha": {"f": 0.2}, "strides": {"list": {"i": ["1", "1", "1", "1"]}}, "T": {"type": "DT_FLOAT"}, "data_format": {"s": "TkhXQw=="}, "explicit_paddings": {"list": {}}, "padding": {"s": "U0FNRQ=="}, "use_cudnn_on_gpu": {"b": true}, "filter_format": {"s": "SFdJTw=="}}}, {"name": "PartitionedCall/model_146/tf.math.sigmoid_392/Sigmoid", "op": "Sigmoid", "input": ["PartitionedCall/model_146/tf.math.add_545/Add"], "attr": {"T": {"type": "DT_FLOAT"}}}, {"name": "PartitionedCall/model_146/tf.math.sigmoid_393/Sigmoid", "op": "Sigmoid", "input": ["PartitionedCall/model_146/tf.math.add_546/Add"], "attr": {"T": {"type": "DT_FLOAT"}}}, {"name": "PartitionedCall/model_146/tf.math.sigmoid_391/Sigmoid", "op": "Sigmoid", "input": ["PartitionedCall/model_146/tf.math.add_544/Add"], "attr": {"T": {"type": "DT_FLOAT"}}}, {"name": "PartitionedCall/model_146/tf.math.multiply_1701/Mul", "op": "Mul", "input": ["PartitionedCall/model_146/tf.math.add_545/Add", "PartitionedCall/model_146/tf.math.sigmoid_392/Sigmoid"], "attr": {"T": {"type": "DT_FLOAT"}}}, {"name": "PartitionedCall/model_146/tf.math.multiply_1705/Mul", "op": "Mul", "input": ["PartitionedCall/model_146/tf.math.add_546/Add", "PartitionedCall/model_146/tf.math.sigmoid_393/Sigmoid"], "attr": {"T": {"type": "DT_FLOAT"}}}, {"name": "PartitionedCall/model_146/tf.math.multiply_1697/Mul", "op": "Mul", "input": ["PartitionedCall/model_146/tf.math.add_544/Add", "PartitionedCall/model_146/tf.math.sigmoid_391/Sigmoid"], "attr": {"T": {"type": "DT_FLOAT"}}}, {"name": "PartitionedCall/model_146/tf.math.add_548/Add", "op": "_FusedConv2D", "input": ["PartitionedCall/model_146/tf.math.multiply_1701/Mul", "107500", "107512"], "device": "/device:CPU:0", "attr": {"use_cudnn_on_gpu": {"b": true}, "num_args": {"i": "1"}, "dilations": {"list": {"i": ["1", "1", "1", "1"]}}, "leakyrelu_alpha": {"f": 0.2}, "epsilon": {"f": 0.0}, "TArgs": {"list": {"type": ["DT_FLOAT"]}}, "num_host_args": {"i": "0"}, "filter_format": {"s": "SFdJTw=="}, "explicit_paddings": {"list": {}}, "padding": {"s": "U0FNRQ=="}, "data_format": {"s": "TkhXQw=="}, "fused_ops": {"list": {"s": ["Qmlhc0FkZA=="]}}, "T": {"type": "DT_FLOAT"}, "strides": {"list": {"i": ["1", "1", "1", "1"]}}}}, {"name": "PartitionedCall/model_146/tf.math.add_549/Add", "op": "_FusedConv2D", "input": ["PartitionedCall/model_146/tf.math.multiply_1705/Mul", "107498", "107510"], "device": "/device:CPU:0", "attr": {"strides": {"list": {"i": ["1", "1", "1", "1"]}}, "epsilon": {"f": 0.0}, "use_cudnn_on_gpu": {"b": true}, "explicit_paddings": {"list": {}}, "num_args": {"i": "1"}, "TArgs": {"list": {"type": ["DT_FLOAT"]}}, "num_host_args": {"i": "0"}, "leakyrelu_alpha": {"f": 0.2}, "padding": {"s": "U0FNRQ=="}, "dilations": {"list": {"i": ["1", "1", "1", "1"]}}, "filter_format": {"s": "SFdJTw=="}, "data_format": {"s": "TkhXQw=="}, "T": {"type": "DT_FLOAT"}, "fused_ops": {"list": {"s": ["Qmlhc0FkZA=="]}}}}, {"name": "PartitionedCall/model_146/tf.math.add_547/Add", "op": "_FusedConv2D", "input": ["PartitionedCall/model_146/tf.math.multiply_1697/Mul", "107558", "107568"], "device": "/device:CPU:0", "attr": {"num_args": {"i": "1"}, "use_cudnn_on_gpu": {"b": true}, "epsilon": {"f": 0.0}, "filter_format": {"s": "SFdJTw=="}, "explicit_paddings": {"list": {}}, "padding": {"s": "U0FNRQ=="}, "num_host_args": {"i": "0"}, "TArgs": {"list": {"type": ["DT_FLOAT"]}}, "strides": {"list": {"i": ["1", "1", "1", "1"]}}, "data_format": {"s": "TkhXQw=="}, "fused_ops": {"list": {"s": ["Qmlhc0FkZA=="]}}, "T": {"type": "DT_FLOAT"}, "leakyrelu_alpha": {"f": 0.2}, "dilations": {"list": {"i": ["1", "1", "1", "1"]}}}}, {"name": "PartitionedCall/model_146/tf.math.sigmoid_395/Sigmoid", "op": "Sigmoid", "input": ["PartitionedCall/model_146/tf.math.add_548/Add"], "attr": {"T": {"type": "DT_FLOAT"}}}, {"name": "PartitionedCall/model_146/tf.math.sigmoid_396/Sigmoid", "op": "Sigmoid", "input": ["PartitionedCall/model_146/tf.math.add_549/Add"], "attr": {"T": {"type": "DT_FLOAT"}}}, {"name": "PartitionedCall/model_146/tf.math.sigmoid_394/Sigmoid", "op": "Sigmoid", "input": ["PartitionedCall/model_146/tf.math.add_547/Add"], "attr": {"T": {"type": "DT_FLOAT"}}}, {"name": "PartitionedCall/model_146/tf.math.multiply_1713/Mul", "op": "Mul", "input": ["PartitionedCall/model_146/tf.math.add_548/Add", "PartitionedCall/model_146/tf.math.sigmoid_395/Sigmoid"], "attr": {"T": {"type": "DT_FLOAT"}}}, {"name": "PartitionedCall/model_146/tf.math.multiply_1717/Mul", "op": "Mul", "input": ["PartitionedCall/model_146/tf.math.add_549/Add", "PartitionedCall/model_146/tf.math.sigmoid_396/Sigmoid"], "attr": {"T": {"type": "DT_FLOAT"}}}, {"name": "PartitionedCall/model_146/tf.math.multiply_1709/Mul", "op": "Mul", "input": ["PartitionedCall/model_146/tf.math.add_547/Add", "PartitionedCall/model_146/tf.math.sigmoid_394/Sigmoid"], "attr": {"T": {"type": "DT_FLOAT"}}}, {"name": "PartitionedCall/model_146/tf.math.add_551/Add", "op": "_FusedConv2D", "input": ["PartitionedCall/model_146/tf.math.multiply_1713/Mul", "107524", "107534"], "device": "/device:CPU:0", "attr": {"filter_format": {"s": "SFdJTw=="}, "T": {"type": "DT_FLOAT"}, "padding": {"s": "U0FNRQ=="}, "strides": {"list": {"i": ["1", "1", "1", "1"]}}, "epsilon": {"f": 0.0}, "fused_ops": {"list": {"s": ["Qmlhc0FkZA=="]}}, "explicit_paddings": {"list": {}}, "data_format": {"s": "TkhXQw=="}, "num_host_args": {"i": "0"}, "TArgs": {"list": {"type": ["DT_FLOAT"]}}, "num_args": {"i": "1"}, "dilations": {"list": {"i": ["1", "1", "1", "1"]}}, "leakyrelu_alpha": {"f": 0.2}, "use_cudnn_on_gpu": {"b": true}}}, {"name": "PartitionedCall/model_146/tf.math.add_552/Add", "op": "_FusedConv2D", "input": ["PartitionedCall/model_146/tf.math.multiply_1717/Mul", "107522", "107536"], "device": "/device:CPU:0", "attr": {"T": {"type": "DT_FLOAT"}, "num_args": {"i": "1"}, "dilations": {"list": {"i": ["1", "1", "1", "1"]}}, "epsilon": {"f": 0.0}, "use_cudnn_on_gpu": {"b": true}, "data_format": {"s": "TkhXQw=="}, "strides": {"list": {"i": ["1", "1", "1", "1"]}}, "filter_format": {"s": "SFdJTw=="}, "explicit_paddings": {"list": {}}, "num_host_args": {"i": "0"}, "leakyrelu_alpha": {"f": 0.2}, "fused_ops": {"list": {"s": ["Qmlhc0FkZA=="]}}, "padding": {"s": "U0FNRQ=="}, "TArgs": {"list": {"type": ["DT_FLOAT"]}}}}, {"name": "PartitionedCall/model_146/tf.math.add_550/Add", "op": "_FusedConv2D", "input": ["PartitionedCall/model_146/tf.math.multiply_1709/Mul", "107574", "107580"], "device": "/device:CPU:0", "attr": {"leakyrelu_alpha": {"f": 0.2}, "epsilon": {"f": 0.0}, "strides": {"list": {"i": ["1", "1", "1", "1"]}}, "padding": {"s": "U0FNRQ=="}, "dilations": {"list": {"i": ["1", "1", "1", "1"]}}, "num_args": {"i": "1"}, "T": {"type": "DT_FLOAT"}, "data_format": {"s": "TkhXQw=="}, "num_host_args": {"i": "0"}, "use_cudnn_on_gpu": {"b": true}, "filter_format": {"s": "SFdJTw=="}, "TArgs": {"list": {"type": ["DT_FLOAT"]}}, "explicit_paddings": {"list": {}}, "fused_ops": {"list": {"s": ["Qmlhc0FkZA=="]}}}}, {"name": "PartitionedCall/model_146/tf.concat_141/concat", "op": "ConcatV2", "input": ["PartitionedCall/model_146/tf.math.add_551/Add", "PartitionedCall/model_146/tf.math.add_552/Add", "PartitionedCall/model_146/tf.concat_141/concat/axis"], "attr": {"N": {"i": "2"}, "Tidx": {"type": "DT_INT32"}, "T": {"type": "DT_FLOAT"}}}, {"name": "PartitionedCall/model_146/tf.compat.v1.transpose_223/transpose", "op": "Transpose", "input": ["PartitionedCall/model_146/tf.math.add_550/Add", "PartitionedCall/model_146/tf.compat.v1.transpose_223/transpose/perm"], "attr": {"Tperm": {"type": "DT_INT32"}, "T": {"type": "DT_FLOAT"}}}, {"name": "PartitionedCall/model_146/tf.compat.v1.transpose_228/transpose", "op": "Transpose", "input": ["PartitionedCall/model_146/tf.concat_141/concat", "PartitionedCall/model_146/tf.compat.v1.transpose_228/transpose/perm"], "attr": {"Tperm": {"type": "DT_INT32"}, "T": {"type": "DT_FLOAT"}}}, {"name": "PartitionedCall/model_146/tf.reshape_108/Reshape", "op": "Reshape", "input": ["PartitionedCall/model_146/tf.compat.v1.transpose_223/transpose", "PartitionedCall/model_146/tf.reshape_108/Reshape/shape"], "attr": {"Tshape": {"type": "DT_INT32"}, "T": {"type": "DT_FLOAT"}}}, {"name": "PartitionedCall/model_146/tf.reshape_111/Reshape", "op": "Reshape", "input": ["PartitionedCall/model_146/tf.compat.v1.transpose_228/transpose", "PartitionedCall/model_146/tf.reshape_111/Reshape/shape"], "attr": {"T": {"type": "DT_FLOAT"}, "Tshape": {"type": "DT_INT32"}}}, {"name": "PartitionedCall/model_146/tf.concat_142/concat", "op": "ConcatV2", "input": ["PartitionedCall/model_146/tf.reshape_96/Reshape", "PartitionedCall/model_146/tf.reshape_102/Reshape", "PartitionedCall/model_146/tf.reshape_108/Reshape", "PartitionedCall/model_146/tf.concat_142/concat/axis"], "attr": {"Tidx": {"type": "DT_INT32"}, "N": {"i": "3"}, "T": {"type": "DT_FLOAT"}}}, {"name": "PartitionedCall/model_146/tf.concat_143/concat", "op": "ConcatV2", "input": ["PartitionedCall/model_146/tf.reshape_99/Reshape", "PartitionedCall/model_146/tf.reshape_105/Reshape", "PartitionedCall/model_146/tf.reshape_111/Reshape", "PartitionedCall/model_146/tf.concat_143/concat/axis"], "attr": {"N": {"i": "3"}, "T": {"type": "DT_FLOAT"}, "Tidx": {"type": "DT_INT32"}}}, {"name": "PartitionedCall/model_146/tf.reshape_114/Reshape", "op": "Reshape", "input": ["PartitionedCall/model_146/tf.concat_142/concat", "PartitionedCall/model_146/tf.reshape_114/Reshape/shape"], "attr": {"T": {"type": "DT_FLOAT"}, "Tshape": {"type": "DT_INT32"}}}, {"name": "PartitionedCall/model_146/tf.strided_slice_124/StridedSlice", "op": "StridedSlice", "input": ["PartitionedCall/model_146/tf.concat_143/concat", "107564", "107566", "PartitionedCall/model_146/tf.strided_slice_124/StridedSlice/strides"], "attr": {"begin_mask": {"i": "7"}, "new_axis_mask": {"i": "0"}, "Index": {"type": "DT_INT64"}, "ellipsis_mask": {"i": "0"}, "T": {"type": "DT_FLOAT"}, "end_mask": {"i": "5"}, "shrink_axis_mask": {"i": "0"}}}, {"name": "PartitionedCall/model_146/tf.strided_slice_125/StridedSlice", "op": "StridedSlice", "input": ["PartitionedCall/model_146/tf.concat_143/concat", "107614", "107616", "PartitionedCall/model_146/tf.strided_slice_125/StridedSlice/strides"], "attr": {"new_axis_mask": {"i": "0"}, "T": {"type": "DT_FLOAT"}, "begin_mask": {"i": "5"}, "ellipsis_mask": {"i": "0"}, "end_mask": {"i": "5"}, "Index": {"type": "DT_INT64"}, "shrink_axis_mask": {"i": "0"}}}, {"name": "PartitionedCall/model_146/tf.strided_slice_126/StridedSlice", "op": "StridedSlice", "input": ["PartitionedCall/model_146/tf.reshape_114/Reshape", "107588", "107590", "PartitionedCall/model_146/tf.strided_slice_126/StridedSlice/strides"], "attr": {"begin_mask": {"i": "15"}, "shrink_axis_mask": {"i": "0"}, "T": {"type": "DT_FLOAT"}, "new_axis_mask": {"i": "0"}, "end_mask": {"i": "11"}, "Index": {"type": "DT_INT64"}, "ellipsis_mask": {"i": "0"}}}, {"name": "PartitionedCall/model_146/tf.strided_slice_127/StridedSlice", "op": "StridedSlice", "input": ["PartitionedCall/model_146/tf.reshape_114/Reshape", "107606", "107608", "PartitionedCall/model_146/tf.strided_slice_127/StridedSlice/strides"], "attr": {"new_axis_mask": {"i": "0"}, "ellipsis_mask": {"i": "0"}, "T": {"type": "DT_FLOAT"}, "shrink_axis_mask": {"i": "0"}, "begin_mask": {"i": "11"}, "Index": {"type": "DT_INT64"}, "end_mask": {"i": "11"}}}, {"name": "PartitionedCall/model_146/tf.reshape_117/Reshape", "op": "Reshape", "input": ["PartitionedCall/model_146/tf.strided_slice_124/StridedSlice", "PartitionedCall/model_146/tf.reshape_117/Reshape/shape"], "attr": {"T": {"type": "DT_FLOAT"}, "Tshape": {"type": "DT_INT32"}}}, {"name": "PartitionedCall/model_146/tf.math.sigmoid_397/Sigmoid", "op": "Sigmoid", "input": ["PartitionedCall/model_146/tf.strided_slice_125/StridedSlice"], "attr": {"T": {"type": "DT_FLOAT"}}}, {"name": "PartitionedCall/model_146/tf.math.multiply_1718/Mul", "op": "Mul", "input": ["PartitionedCall/model_146/tf.strided_slice_126/StridedSlice", "107600"], "attr": {"T": {"type": "DT_FLOAT"}}}, {"name": "PartitionedCall/model_146/tf.math.sigmoid_398/Sigmoid", "op": "Sigmoid", "input": ["PartitionedCall/model_146/tf.strided_slice_127/StridedSlice"], "attr": {"T": {"type": "DT_FLOAT"}}}, {"name": "PartitionedCall/model_146/tf.compat.v1.transpose_239/transpose", "op": "Transpose", "input": ["PartitionedCall/model_146/tf.reshape_117/Reshape", "PartitionedCall/model_146/tf.compat.v1.transpose_239/transpose/perm"], "attr": {"Tperm": {"type": "DT_INT32"}, "T": {"type": "DT_FLOAT"}}}, {"name": "PartitionedCall/model_146/tf.math.add_553/Add", "op": "AddV2", "input": ["PartitionedCall/model_146/tf.math.multiply_1718/Mul", "107610"], "attr": {"T": {"type": "DT_FLOAT"}}}, {"name": "PartitionedCall/model_146/tf.compat.v1.transpose_240/transpose", "op": "Transpose", "input": ["PartitionedCall/model_146/tf.compat.v1.transpose_239/transpose", "PartitionedCall/model_146/tf.compat.v1.transpose_240/transpose/perm"], "attr": {"T": {"type": "DT_FLOAT"}, "Tperm": {"type": "DT_INT32"}}}, {"name": "PartitionedCall/model_146/tf.math.multiply_1719/Mul", "op": "Mul", "input": ["PartitionedCall/model_146/tf.math.add_553/Add", "PartitionedCall/model_146/tf.math.multiply_1719/Mul/y"], "attr": {"T": {"type": "DT_FLOAT"}}}, {"name": "PartitionedCall/model_146/tf.nn.softmax_6//model.22/dfl/Softmax", "op": "Softmax", "input": ["PartitionedCall/model_146/tf.compat.v1.transpose_240/transpose"], "attr": {"T": {"type": "DT_FLOAT"}}}, {"name": "PartitionedCall/model_146/tf.concat_144/concat", "op": "ConcatV2", "input": ["PartitionedCall/model_146/tf.math.multiply_1719/Mul", "PartitionedCall/model_146/tf.math.sigmoid_398/Sigmoid", "PartitionedCall/model_146/tf.concat_144/concat/axis"], "attr": {"T": {"type": "DT_FLOAT"}, "Tidx": {"type": "DT_INT32"}, "N": {"i": "2"}}}, {"name": "PartitionedCall/model_146/tf.nn.convolution_462/convolution", "op": "Conv2D", "input": ["PartitionedCall/model_146/tf.nn.softmax_6//model.22/dfl/Softmax", "107586"], "device": "/device:CPU:0", "attr": {"use_cudnn_on_gpu": {"b": true}, "padding": {"s": "U0FNRQ=="}, "strides": {"list": {"i": ["1", "1", "1", "1"]}}, "dilations": {"list": {"i": ["1", "1", "1", "1"]}}, "T": {"type": "DT_FLOAT"}, "data_format": {"s": "TkhXQw=="}, "explicit_paddings": {"list": {}}}}, {"name": "PartitionedCall/model_146/tf.reshape_123/Reshape", "op": "Reshape", "input": ["PartitionedCall/model_146/tf.concat_144/concat", "PartitionedCall/model_146/tf.reshape_123/Reshape/shape"], "attr": {"T": {"type": "DT_FLOAT"}, "Tshape": {"type": "DT_INT32"}}}, {"name": "PartitionedCall/model_146/tf.compat.v1.transpose_245/transpose", "op": "Transpose", "input": ["PartitionedCall/model_146/tf.nn.convolution_462/convolution", "PartitionedCall/model_146/tf.compat.v1.transpose_245/transpose/perm"], "attr": {"T": {"type": "DT_FLOAT"}, "Tperm": {"type": "DT_INT32"}}}, {"name": "PartitionedCall/model_146/tf.reshape_120/Reshape", "op": "Reshape", "input": ["PartitionedCall/model_146/tf.compat.v1.transpose_245/transpose", "PartitionedCall/model_146/tf.reshape_120/Reshape/shape"], "attr": {"T": {"type": "DT_FLOAT"}, "Tshape": {"type": "DT_INT32"}}}, {"name": "PartitionedCall/model_146/tf.strided_slice_129/StridedSlice", "op": "StridedSlice", "input": ["PartitionedCall/model_146/tf.reshape_120/Reshape", "107592", "107594", "PartitionedCall/model_146/tf.strided_slice_129/ones_like"], "attr": {"Index": {"type": "DT_INT64"}, "T": {"type": "DT_FLOAT"}, "begin_mask": {"i": "5"}, "end_mask": {"i": "5"}, "shrink_axis_mask": {"i": "0"}, "new_axis_mask": {"i": "0"}, "ellipsis_mask": {"i": "0"}}}, {"name": "PartitionedCall/model_146/tf.strided_slice_128/StridedSlice", "op": "StridedSlice", "input": ["PartitionedCall/model_146/tf.reshape_120/Reshape", "107596", "107598", "PartitionedCall/model_146/tf.strided_slice_128/ones_like"], "attr": {"new_axis_mask": {"i": "0"}, "Index": {"type": "DT_INT64"}, "ellipsis_mask": {"i": "0"}, "end_mask": {"i": "5"}, "T": {"type": "DT_FLOAT"}, "shrink_axis_mask": {"i": "0"}, "begin_mask": {"i": "7"}}}, {"name": "PartitionedCall/model_146/tf.math.add_554/Add", "op": "AddV2", "input": ["107602", "PartitionedCall/model_146/tf.strided_slice_129/StridedSlice"], "attr": {"T": {"type": "DT_FLOAT"}}}, {"name": "PartitionedCall/model_146/tf.math.subtract_10/Sub", "op": "Sub", "input": ["107604", "PartitionedCall/model_146/tf.strided_slice_128/StridedSlice"], "attr": {"T": {"type": "DT_FLOAT"}}}, {"name": "PartitionedCall/model_146/tf.math.add_555/Add", "op": "AddV2", "input": ["PartitionedCall/model_146/tf.math.subtract_10/Sub", "PartitionedCall/model_146/tf.math.add_554/Add"], "attr": {"T": {"type": "DT_FLOAT"}}}, {"name": "PartitionedCall/model_146/tf.math.subtract_11/Sub", "op": "Sub", "input": ["PartitionedCall/model_146/tf.math.add_554/Add", "PartitionedCall/model_146/tf.math.subtract_10/Sub"], "attr": {"T": {"type": "DT_FLOAT"}}}, {"name": "PartitionedCall/model_146/tf.math.divide_5/truediv", "op": "Mul", "input": ["PartitionedCall/model_146/tf.math.add_555/Add", "ConstantFolding/PartitionedCall/model_146/tf.math.divide_5/truediv_recip"], "attr": {"T": {"type": "DT_FLOAT"}}}, {"name": "PartitionedCall/model_146/tf.concat_148/concat", "op": "ConcatV2", "input": ["PartitionedCall/model_146/tf.math.divide_5/truediv", "PartitionedCall/model_146/tf.math.subtract_11/Sub", "PartitionedCall/model_146/tf.concat_148/concat/axis"], "attr": {"N": {"i": "2"}, "T": {"type": "DT_FLOAT"}, "Tidx": {"type": "DT_INT32"}}}, {"name": "PartitionedCall/model_146/tf.math.multiply_1732/Mul", "op": "Mul", "input": ["PartitionedCall/model_146/tf.concat_148/concat", "PartitionedCall/model_146/tf.math.multiply_1732/Mul/y"], "attr": {"T": {"type": "DT_FLOAT"}}}, {"name": "PartitionedCall/model_146/output0/concat", "op": "ConcatV2", "input": ["PartitionedCall/model_146/tf.math.multiply_1732/Mul", "PartitionedCall/model_146/tf.math.sigmoid_397/Sigmoid", "PartitionedCall/model_146/tf.reshape_123/Reshape", "PartitionedCall/model_146/output0/concat/axis"], "attr": {"T": {"type": "DT_FLOAT"}, "Tidx": {"type": "DT_INT32"}, "N": {"i": "3"}}}, {"name": "Identity", "op": "Identity", "input": ["PartitionedCall/model_146/output0/concat"], "attr": {"T": {"type": "DT_FLOAT"}}}], "library": {}, "versions": {"producer": 1766}}, "weightsManifest": [{"paths": ["group1-shard1of4.bin", "group1-shard2of4.bin", "group1-shard3of4.bin", "group1-shard4of4.bin"], "weights": [{"name": "ConstantFolding/PartitionedCall/model_146/tf.math.divide_5/truediv_recip", "shape": [1, 1, 1], "dtype": "float32"}, {"name": "107602", "shape": [1, 2, 8400], "dtype": "float32"}, {"name": "107592", "shape": [3], "dtype": "int32"}, {"name": "107594", "shape": [3], "dtype": "int32"}, {"name": "PartitionedCall/model_146/tf.strided_slice_129/ones_like", "shape": [3], "dtype": "int32"}, {"name": "107604", "shape": [1, 2, 8400], "dtype": "float32"}, {"name": "107564", "shape": [3], "dtype": "int32"}, {"name": "107566", "shape": [3], "dtype": "int32"}, {"name": "PartitionedCall/model_146/tf.strided_slice_124/StridedSlice/strides", "shape": [3], "dtype": "int32"}, {"name": "PartitionedCall/model_146/tf.reshape_117/Reshape/shape", "shape": [4], "dtype": "int32"}, {"name": "PartitionedCall/model_146/tf.compat.v1.transpose_239/transpose/perm", "shape": [4], "dtype": "int32"}, {"name": "PartitionedCall/model_146/tf.compat.v1.transpose_240/transpose/perm", "shape": [4], "dtype": "int32"}, {"name": "107586", "shape": [1, 1, 16, 1], "dtype": "float32"}, {"name": "PartitionedCall/model_146/tf.compat.v1.transpose_245/transpose/perm", "shape": [4], "dtype": "int32"}, {"name": "PartitionedCall/model_146/tf.reshape_120/Reshape/shape", "shape": [3], "dtype": "int32"}, {"name": "107596", "shape": [3], "dtype": "int32"}, {"name": "107598", "shape": [3], "dtype": "int32"}, {"name": "PartitionedCall/model_146/tf.strided_slice_128/ones_like", "shape": [3], "dtype": "int32"}, {"name": "PartitionedCall/model_146/tf.concat_148/concat/axis", "shape": [], "dtype": "int32"}, {"name": "PartitionedCall/model_146/tf.math.multiply_1732/Mul/y", "shape": [1, 1, 8400], "dtype": "float32"}, {"name": "107484", "shape": [3, 3, 64, 64], "dtype": "float32"}, {"name": "107496", "shape": [64], "dtype": "float32"}, {"name": "107508", "shape": [3, 3, 64, 64], "dtype": "float32"}, {"name": "107520", "shape": [64], "dtype": "float32"}, {"name": "107532", "shape": [1, 1, 64, 64], "dtype": "float32"}, {"name": "107542", "shape": [64], "dtype": "float32"}, {"name": "107482", "shape": [3, 3, 64, 64], "dtype": "float32"}, {"name": "107494", "shape": [64], "dtype": "float32"}, {"name": "107506", "shape": [3, 3, 64, 64], "dtype": "float32"}, {"name": "107518", "shape": [64], "dtype": "float32"}, {"name": "107530", "shape": [1, 1, 64, 1], "dtype": "float32"}, {"name": "107544", "shape": [1], "dtype": "float32"}, {"name": "PartitionedCall/model_146/tf.concat_136/concat/axis", "shape": [], "dtype": "int32"}, {"name": "PartitionedCall/model_146/tf.compat.v1.transpose_208/transpose/perm", "shape": [4], "dtype": "int32"}, {"name": "PartitionedCall/model_146/tf.reshape_99/Reshape/shape", "shape": [3], "dtype": "int32"}, {"name": "107480", "shape": [3, 3, 128, 64], "dtype": "float32"}, {"name": "107492", "shape": [64], "dtype": "float32"}, {"name": "107504", "shape": [3, 3, 64, 64], "dtype": "float32"}, {"name": "107516", "shape": [64], "dtype": "float32"}, {"name": "107528", "shape": [1, 1, 64, 64], "dtype": "float32"}, {"name": "107538", "shape": [64], "dtype": "float32"}, {"name": "107478", "shape": [3, 3, 128, 64], "dtype": "float32"}, {"name": "107490", "shape": [64], "dtype": "float32"}, {"name": "107502", "shape": [3, 3, 64, 64], "dtype": "float32"}, {"name": "107514", "shape": [64], "dtype": "float32"}, {"name": "107526", "shape": [1, 1, 64, 1], "dtype": "float32"}, {"name": "107540", "shape": [1], "dtype": "float32"}, {"name": "PartitionedCall/model_146/tf.concat_139/concat/axis", "shape": [], "dtype": "int32"}, {"name": "PartitionedCall/model_146/tf.compat.v1.transpose_218/transpose/perm", "shape": [4], "dtype": "int32"}, {"name": "PartitionedCall/model_146/tf.reshape_105/Reshape/shape", "shape": [3], "dtype": "int32"}, {"name": "107476", "shape": [3, 3, 256, 64], "dtype": "float32"}, {"name": "107488", "shape": [64], "dtype": "float32"}, {"name": "107500", "shape": [3, 3, 64, 64], "dtype": "float32"}, {"name": "107512", "shape": [64], "dtype": "float32"}, {"name": "107524", "shape": [1, 1, 64, 64], "dtype": "float32"}, {"name": "107534", "shape": [64], "dtype": "float32"}, {"name": "107474", "shape": [3, 3, 256, 64], "dtype": "float32"}, {"name": "107486", "shape": [64], "dtype": "float32"}, {"name": "107498", "shape": [3, 3, 64, 64], "dtype": "float32"}, {"name": "107510", "shape": [64], "dtype": "float32"}, {"name": "107522", "shape": [1, 1, 64, 1], "dtype": "float32"}, {"name": "107536", "shape": [1], "dtype": "float32"}, {"name": "PartitionedCall/model_146/tf.concat_141/concat/axis", "shape": [], "dtype": "int32"}, {"name": "PartitionedCall/model_146/tf.compat.v1.transpose_228/transpose/perm", "shape": [4], "dtype": "int32"}, {"name": "PartitionedCall/model_146/tf.reshape_111/Reshape/shape", "shape": [3], "dtype": "int32"}, {"name": "PartitionedCall/model_146/tf.concat_143/concat/axis", "shape": [], "dtype": "int32"}, {"name": "107614", "shape": [3], "dtype": "int32"}, {"name": "107616", "shape": [3], "dtype": "int32"}, {"name": "PartitionedCall/model_146/tf.strided_slice_125/StridedSlice/strides", "shape": [3], "dtype": "int32"}, {"name": "107588", "shape": [4], "dtype": "int32"}, {"name": "107590", "shape": [4], "dtype": "int32"}, {"name": "PartitionedCall/model_146/tf.strided_slice_126/StridedSlice/strides", "shape": [4], "dtype": "int32"}, {"name": "107600", "shape": [1, 1, 1, 1], "dtype": "float32"}, {"name": "107610", "shape": [1, 1, 2, 8400], "dtype": "float32"}, {"name": "PartitionedCall/model_146/tf.math.multiply_1719/Mul/y", "shape": [1, 1, 1, 8400], "dtype": "float32"}, {"name": "107550", "shape": [3, 3, 64, 51], "dtype": "float32"}, {"name": "107556", "shape": [51], "dtype": "float32"}, {"name": "107562", "shape": [3, 3, 51, 51], "dtype": "float32"}, {"name": "107572", "shape": [51], "dtype": "float32"}, {"name": "107578", "shape": [1, 1, 51, 51], "dtype": "float32"}, {"name": "107584", "shape": [51], "dtype": "float32"}, {"name": "PartitionedCall/model_146/tf.compat.v1.transpose_203/transpose/perm", "shape": [4], "dtype": "int32"}, {"name": "PartitionedCall/model_146/tf.reshape_96/Reshape/shape", "shape": [3], "dtype": "int32"}, {"name": "107548", "shape": [3, 3, 128, 51], "dtype": "float32"}, {"name": "107554", "shape": [51], "dtype": "float32"}, {"name": "107560", "shape": [3, 3, 51, 51], "dtype": "float32"}, {"name": "107570", "shape": [51], "dtype": "float32"}, {"name": "107576", "shape": [1, 1, 51, 51], "dtype": "float32"}, {"name": "107582", "shape": [51], "dtype": "float32"}, {"name": "PartitionedCall/model_146/tf.compat.v1.transpose_213/transpose/perm", "shape": [4], "dtype": "int32"}, {"name": "PartitionedCall/model_146/tf.reshape_102/Reshape/shape", "shape": [3], "dtype": "int32"}, {"name": "107466", "shape": [4], "dtype": "int32"}, {"name": "107468", "shape": [4], "dtype": "int32"}, {"name": "PartitionedCall/model_146/tf.strided_slice_122/ones_like", "shape": [4], "dtype": "int32"}, {"name": "107436", "shape": [4], "dtype": "int32"}, {"name": "107438", "shape": [4], "dtype": "int32"}, {"name": "PartitionedCall/model_146/tf.strided_slice_120/ones_like", "shape": [4], "dtype": "int32"}, {"name": "107406", "shape": [4], "dtype": "int32"}, {"name": "107408", "shape": [4], "dtype": "int32"}, {"name": "PartitionedCall/model_146/tf.strided_slice_118/ones_like", "shape": [4], "dtype": "int32"}, {"name": "PartitionedCall/model_146/tf.compat.v1.image.resize_nearest_neighbor_11/ResizeNearestNeighbor/size", "shape": [2], "dtype": "int32"}, {"name": "PartitionedCall/model_146/tf.concat_133/concat/axis", "shape": [], "dtype": "int32"}, {"name": "107390", "shape": [1, 1, 192, 64], "dtype": "float32"}, {"name": "107392", "shape": [64], "dtype": "float32"}, {"name": "107394", "shape": [4], "dtype": "int32"}, {"name": "107396", "shape": [4], "dtype": "int32"}, {"name": "PartitionedCall/model_146/tf.strided_slice_119/ones_like", "shape": [4], "dtype": "int32"}, {"name": "107398", "shape": [3, 3, 32, 32], "dtype": "float32"}, {"name": "107400", "shape": [32], "dtype": "float32"}, {"name": "107402", "shape": [3, 3, 32, 32], "dtype": "float32"}, {"name": "107404", "shape": [32], "dtype": "float32"}, {"name": "PartitionedCall/model_146/tf.concat_134/concat/axis", "shape": [], "dtype": "int32"}, {"name": "107410", "shape": [1, 1, 96, 64], "dtype": "float32"}, {"name": "107412", "shape": [64], "dtype": "float32"}, {"name": "107414", "shape": [4, 2], "dtype": "int32"}, {"name": "107416", "shape": [3, 3, 64, 64], "dtype": "float32"}, {"name": "107418", "shape": [64], "dtype": "float32"}, {"name": "107382", "shape": [4], "dtype": "int32"}, {"name": "107384", "shape": [4], "dtype": "int32"}, {"name": "PartitionedCall/model_146/tf.strided_slice_116/ones_like", "shape": [4], "dtype": "int32"}, {"name": "PartitionedCall/model_146/tf.compat.v1.image.resize_nearest_neighbor_10/ResizeNearestNeighbor/size", "shape": [2], "dtype": "int32"}, {"name": "PartitionedCall/model_146/tf.concat_131/concat/axis", "shape": [], "dtype": "int32"}, {"name": "107366", "shape": [1, 1, 384, 128], "dtype": "float32"}, {"name": "107368", "shape": [128], "dtype": "float32"}, {"name": "107370", "shape": [4], "dtype": "int32"}, {"name": "107372", "shape": [4], "dtype": "int32"}, {"name": "PartitionedCall/model_146/tf.strided_slice_117/ones_like", "shape": [4], "dtype": "int32"}, {"name": "107374", "shape": [3, 3, 64, 64], "dtype": "float32"}, {"name": "107376", "shape": [64], "dtype": "float32"}, {"name": "107378", "shape": [3, 3, 64, 64], "dtype": "float32"}, {"name": "107380", "shape": [64], "dtype": "float32"}, {"name": "PartitionedCall/model_146/tf.concat_132/concat/axis", "shape": [], "dtype": "int32"}, {"name": "107386", "shape": [1, 1, 192, 128], "dtype": "float32"}, {"name": "107388", "shape": [128], "dtype": "float32"}, {"name": "PartitionedCall/model_146/tf.concat_135/concat/axis", "shape": [], "dtype": "int32"}, {"name": "107420", "shape": [1, 1, 192, 128], "dtype": "float32"}, {"name": "107422", "shape": [128], "dtype": "float32"}, {"name": "107424", "shape": [4], "dtype": "int32"}, {"name": "107426", "shape": [4], "dtype": "int32"}, {"name": "PartitionedCall/model_146/tf.strided_slice_121/ones_like", "shape": [4], "dtype": "int32"}, {"name": "107428", "shape": [3, 3, 64, 64], "dtype": "float32"}, {"name": "107430", "shape": [64], "dtype": "float32"}, {"name": "107432", "shape": [3, 3, 64, 64], "dtype": "float32"}, {"name": "107434", "shape": [64], "dtype": "float32"}, {"name": "PartitionedCall/model_146/tf.concat_137/concat/axis", "shape": [], "dtype": "int32"}, {"name": "107440", "shape": [1, 1, 192, 128], "dtype": "float32"}, {"name": "107442", "shape": [128], "dtype": "float32"}, {"name": "107444", "shape": [4, 2], "dtype": "int32"}, {"name": "107446", "shape": [3, 3, 128, 128], "dtype": "float32"}, {"name": "107448", "shape": [128], "dtype": "float32"}, {"name": "107350", "shape": [4], "dtype": "int32"}, {"name": "107352", "shape": [4], "dtype": "int32"}, {"name": "PartitionedCall/model_146/tf.strided_slice_114/ones_like", "shape": [4], "dtype": "int32"}, {"name": "107320", "shape": [4], "dtype": "int32"}, {"name": "107322", "shape": [4], "dtype": "int32"}, {"name": "PartitionedCall/model_146/tf.strided_slice_112/ones_like", "shape": [4], "dtype": "int32"}, {"name": "107282", "shape": [4], "dtype": "int32"}, {"name": "107284", "shape": [4], "dtype": "int32"}, {"name": "PartitionedCall/model_146/tf.strided_slice_110/ones_like", "shape": [4], "dtype": "int32"}, {"name": "107244", "shape": [4], "dtype": "int32"}, {"name": "107246", "shape": [4], "dtype": "int32"}, {"name": "PartitionedCall/model_146/tf.strided_slice_108/ones_like", "shape": [4], "dtype": "int32"}, {"name": "107216", "shape": [4, 2], "dtype": "int32"}, {"name": "107218", "shape": [3, 3, 3, 16], "dtype": "float32"}, {"name": "107220", "shape": [16], "dtype": "float32"}, {"name": "107222", "shape": [4, 2], "dtype": "int32"}, {"name": "107224", "shape": [3, 3, 16, 32], "dtype": "float32"}, {"name": "107226", "shape": [32], "dtype": "float32"}, {"name": "107228", "shape": [1, 1, 32, 32], "dtype": "float32"}, {"name": "107230", "shape": [32], "dtype": "float32"}, {"name": "107232", "shape": [4], "dtype": "int32"}, {"name": "107234", "shape": [4], "dtype": "int32"}, {"name": "PartitionedCall/model_146/tf.strided_slice_109/ones_like", "shape": [4], "dtype": "int32"}, {"name": "107236", "shape": [3, 3, 16, 16], "dtype": "float32"}, {"name": "107238", "shape": [16], "dtype": "float32"}, {"name": "107240", "shape": [3, 3, 16, 16], "dtype": "float32"}, {"name": "107242", "shape": [16], "dtype": "float32"}, {"name": "PartitionedCall/model_146/tf.concat_126/concat/axis", "shape": [], "dtype": "int32"}, {"name": "107248", "shape": [1, 1, 48, 32], "dtype": "float32"}, {"name": "107250", "shape": [32], "dtype": "float32"}, {"name": "107252", "shape": [4, 2], "dtype": "int32"}, {"name": "107254", "shape": [3, 3, 32, 64], "dtype": "float32"}, {"name": "107256", "shape": [64], "dtype": "float32"}, {"name": "107258", "shape": [1, 1, 64, 64], "dtype": "float32"}, {"name": "107260", "shape": [64], "dtype": "float32"}, {"name": "107262", "shape": [4], "dtype": "int32"}, {"name": "107264", "shape": [4], "dtype": "int32"}, {"name": "PartitionedCall/model_146/tf.strided_slice_111/ones_like", "shape": [4], "dtype": "int32"}, {"name": "107266", "shape": [3, 3, 32, 32], "dtype": "float32"}, {"name": "107268", "shape": [32], "dtype": "float32"}, {"name": "107270", "shape": [3, 3, 32, 32], "dtype": "float32"}, {"name": "107272", "shape": [32], "dtype": "float32"}, {"name": "107274", "shape": [3, 3, 32, 32], "dtype": "float32"}, {"name": "107276", "shape": [32], "dtype": "float32"}, {"name": "107278", "shape": [3, 3, 32, 32], "dtype": "float32"}, {"name": "107280", "shape": [32], "dtype": "float32"}, {"name": "PartitionedCall/model_146/tf.concat_127/concat/axis", "shape": [], "dtype": "int32"}, {"name": "107286", "shape": [1, 1, 128, 64], "dtype": "float32"}, {"name": "107288", "shape": [64], "dtype": "float32"}, {"name": "107290", "shape": [4, 2], "dtype": "int32"}, {"name": "107292", "shape": [3, 3, 64, 128], "dtype": "float32"}, {"name": "107294", "shape": [128], "dtype": "float32"}, {"name": "107296", "shape": [1, 1, 128, 128], "dtype": "float32"}, {"name": "107298", "shape": [128], "dtype": "float32"}, {"name": "107300", "shape": [4], "dtype": "int32"}, {"name": "107302", "shape": [4], "dtype": "int32"}, {"name": "PartitionedCall/model_146/tf.strided_slice_113/ones_like", "shape": [4], "dtype": "int32"}, {"name": "107304", "shape": [3, 3, 64, 64], "dtype": "float32"}, {"name": "107306", "shape": [64], "dtype": "float32"}, {"name": "107308", "shape": [3, 3, 64, 64], "dtype": "float32"}, {"name": "107310", "shape": [64], "dtype": "float32"}, {"name": "107312", "shape": [3, 3, 64, 64], "dtype": "float32"}, {"name": "107314", "shape": [64], "dtype": "float32"}, {"name": "107316", "shape": [3, 3, 64, 64], "dtype": "float32"}, {"name": "107318", "shape": [64], "dtype": "float32"}, {"name": "PartitionedCall/model_146/tf.concat_128/concat/axis", "shape": [], "dtype": "int32"}, {"name": "107324", "shape": [1, 1, 256, 128], "dtype": "float32"}, {"name": "107326", "shape": [128], "dtype": "float32"}, {"name": "107328", "shape": [4, 2], "dtype": "int32"}, {"name": "107330", "shape": [3, 3, 128, 256], "dtype": "float32"}, {"name": "107332", "shape": [256], "dtype": "float32"}, {"name": "107334", "shape": [1, 1, 256, 256], "dtype": "float32"}, {"name": "107336", "shape": [256], "dtype": "float32"}, {"name": "107338", "shape": [4], "dtype": "int32"}, {"name": "107340", "shape": [4], "dtype": "int32"}, {"name": "PartitionedCall/model_146/tf.strided_slice_115/ones_like", "shape": [4], "dtype": "int32"}, {"name": "107342", "shape": [3, 3, 128, 128], "dtype": "float32"}, {"name": "107344", "shape": [128], "dtype": "float32"}, {"name": "107346", "shape": [3, 3, 128, 128], "dtype": "float32"}, {"name": "107348", "shape": [128], "dtype": "float32"}, {"name": "PartitionedCall/model_146/tf.concat_129/concat/axis", "shape": [], "dtype": "int32"}, {"name": "107354", "shape": [1, 1, 384, 256], "dtype": "float32"}, {"name": "107356", "shape": [256], "dtype": "float32"}, {"name": "107358", "shape": [1, 1, 256, 128], "dtype": "float32"}, {"name": "107360", "shape": [128], "dtype": "float32"}, {"name": "PartitionedCall/model_146/tf.concat_130/concat/axis", "shape": [], "dtype": "int32"}, {"name": "107362", "shape": [1, 1, 512, 256], "dtype": "float32"}, {"name": "107364", "shape": [256], "dtype": "float32"}, {"name": "PartitionedCall/model_146/tf.concat_138/concat/axis", "shape": [], "dtype": "int32"}, {"name": "107450", "shape": [1, 1, 384, 256], "dtype": "float32"}, {"name": "107452", "shape": [256], "dtype": "float32"}, {"name": "107454", "shape": [4], "dtype": "int32"}, {"name": "107456", "shape": [4], "dtype": "int32"}, {"name": "PartitionedCall/model_146/tf.strided_slice_123/ones_like", "shape": [4], "dtype": "int32"}, {"name": "107458", "shape": [3, 3, 128, 128], "dtype": "float32"}, {"name": "107460", "shape": [128], "dtype": "float32"}, {"name": "107462", "shape": [3, 3, 128, 128], "dtype": "float32"}, {"name": "107464", "shape": [128], "dtype": "float32"}, {"name": "PartitionedCall/model_146/tf.concat_140/concat/axis", "shape": [], "dtype": "int32"}, {"name": "107470", "shape": [1, 1, 384, 256], "dtype": "float32"}, {"name": "107472", "shape": [256], "dtype": "float32"}, {"name": "107546", "shape": [3, 3, 256, 51], "dtype": "float32"}, {"name": "107552", "shape": [51], "dtype": "float32"}, {"name": "107558", "shape": [3, 3, 51, 51], "dtype": "float32"}, {"name": "107568", "shape": [51], "dtype": "float32"}, {"name": "107574", "shape": [1, 1, 51, 51], "dtype": "float32"}, {"name": "107580", "shape": [51], "dtype": "float32"}, {"name": "PartitionedCall/model_146/tf.compat.v1.transpose_223/transpose/perm", "shape": [4], "dtype": "int32"}, {"name": "PartitionedCall/model_146/tf.reshape_108/Reshape/shape", "shape": [3], "dtype": "int32"}, {"name": "PartitionedCall/model_146/tf.concat_142/concat/axis", "shape": [], "dtype": "int32"}, {"name": "PartitionedCall/model_146/tf.reshape_114/Reshape/shape", "shape": [4], "dtype": "int32"}, {"name": "107606", "shape": [4], "dtype": "int32"}, {"name": "107608", "shape": [4], "dtype": "int32"}, {"name": "PartitionedCall/model_146/tf.strided_slice_127/StridedSlice/strides", "shape": [4], "dtype": "int32"}, {"name": "PartitionedCall/model_146/tf.concat_144/concat/axis", "shape": [], "dtype": "int32"}, {"name": "PartitionedCall/model_146/tf.reshape_123/Reshape/shape", "shape": [3], "dtype": "int32"}, {"name": "PartitionedCall/model_146/output0/concat/axis", "shape": [], "dtype": "int32"}]}]}